20210314/best_policy.model (torch, 594703 bytes, 15 tensors)

conv1.weight f4 [32, 4, 3, 3]
0.1049422 0.23895822 0.13186044 0.035446316 0.22667392 0.34090722 0.065250106 0.011723328
0.105631046 -0.06460357 -0.14756691 -0.23857063 -0.16032025 0.19790296 -0.106365755 0.12544082
-0.22601959 -0.24254063 -0.001970853 0.089486085 -0.03301768 -0.076857 -0.14411563 0.02023638
0.08246672 0.09205699 0.054913998 -0.09709329 0.15916842 0.020115865 -0.13760407 -0.042409435
-0.15203027 -0.06293453 0.11619602 0.015403784 -0.1679963 0.2887467 0.15321815 -0.07919229
-0.22925234 0.0042047114 -0.13954437 0.1481368 -0.01005749 -0.30308622 -0.052562684 -0.046847086
0.077260144 0.159776 0.09979113 -0.07336549 -0.15894997 -0.22531088 -0.03545169 -0.06422111
-0.10874029 0.1389284 0.13401543 0.117284276 -0.05953315 0.14405261 0.01579774 0.03809552
-0.09931335 0.13122196 -0.093330726 0.16047615 -0.0693139 0.010506463 -0.14932984 0.071058884
0.102351926 0.0050222655 -0.27117798 -0.3127271 -0.037975207 0.19018853 0.17157385 0.08615636
0.00074189086 -0.3199896 -0.198525 -0.28159976 0.29378277 0.00689209 -0.029856695 -0.16405939
0.0471545 -0.08729715 -0.08313415 -0.03207841 0.022108253 0.13796414 0.16165622 0.17957388
0.031211346 0.07683285 0.066364616 0.0244081 0.12496816 -0.108701214 -0.06502532 0.10537501
-0.05268501 0.114212826 0.008224677 -0.15306659 -0.13117026 0.28897133 -0.19456641 -0.08548213
0.08425452 0.13907374 -0.08255958 0.15656446 0.11648475 -0.16878043 -0.09434079 -0.12623234
-0.23883292 -0.08260342 0.039963063 -0.13481562 -0.010188229 -0.36079404 0.20170747 -0.2064749
0.09603509 0.039178804 0.06270762 -0.007844957 0.01800693 0.025566595 0.1169027 -0.07747896
-0.094179414 0.021985525 0.036367588 -0.008643931 -0.04797072 0.044530764 0.029455153 0.021075027
0.18164992 0.19197576 -0.23325244 0.15587145 -0.43133295 0.14298165 -0.24621555 0.18913516
0.11923159 0.03575734 -0.115372054 -0.048544183 -0.3606987 0.025067855 -0.029347178 0.12961069
-0.31456664 -0.06728131 -0.0126388315 0.06524304 -0.011705952 -0.14569356 0.13804379 -0.05871817
0.027371962 -0.034636214 0.017302241 -0.12750348 0.12883157 -0.043625236 0.017132502 -0.02760584
0.12726158 0.122463554 -0.07796731 -0.18569042 -0.14743856 -0.035751045 0.05659373 -0.13648896
-0.03621095 0.24323507 0.27588937 0.040700436 -0.0014121148 -0.26477557 0.14116992 0.045756135
-0.10188118 0.081129685 0.115568265 -0.08116877 0.18282339 0.114478454 0.1800072 -0.016738072
0.15211701 0.058576312 0.07358148 0.00013539317 0.099163026 -0.025472058 0.0921238 0.10300121
0.11850886 0.017942749 0.15057252 0.0010280713 0.057713892 0.19419117 -0.13841419 -0.15260997
0.19205146 0.24740651 -0.13213985 0.04846574 -0.12747602 0.11112705 -0.053122353 -0.17034718
0.08713954 -0.085542224 0.20807612 0.0019546202 0.033639498 -0.15460427 -0.006196027 0.07131556
-0.016707605 -0.04798436 0.007147031 -0.1020314 -0.025568968 0.10093474 -0.0018890008 0.018996753
-0.025409773 -0.098429054 -0.14118624 0.106085815 0.14326103 -0.17633691 0.104319654 0.12644975
0.15459871 -0.08820008 -0.081726395 0.077634335 0.090660214 -0.100510776 0.3176915 -0.057006266
00000000: f0eb d63d 77b1 743e 6c06 073e 2830 113d
00000010: 351d 683e 648b ae3e d9a1 853d 3413 403c
00000020: 1755 d83d e04e 84bd c81b 17be dc4b 74be
00000030: fe2a 24be 13a7 4a3e 4ad6 d9bd 8f73 003e
00000040: ae71 67be 925c 78be 6d29 01bb 7b44 b73d
00000050: 8c3d 07bd 3467 9dbd 0c93 13be c4c6 a53c
00000060: 50e4 a83d 6088 bc3d 80ed 603d d9d8 c6bd
00000070: 0cfd 223e 07ca a43c 15e8 0cbe 84b5 2dbd
00000080: d3ad 1bbe d2e3 80bd 2ef8 ed3d 2760 7c3c
00000090: 3907 2cbe 9cd6 933e 38e5 1c3e 912f a2bd
000000a0: 20c1 6abe adc7 893b b8e4 0ebe 2cb1 173e
000000b0: 2cc8 24bc 1e2e 9bbe f84b 57bd bbe2 3fbd
000000c0: 913a 9e3d 529c 233e 4b5f cc3d a540 96bd
000000d0: c8c3 22be e5b7 66be cb35 11bd 5b86 83bd
000000e0: 3bb3 debd 3f43 0e3e 573b 093e bd32 f03d
000000f0: 08d9 73bd 8782 133e 436a 813c 0c0a 1c3d
00000100: cc64 cbbd 0d5f 063e 2e24 bfbd dc53 243e
00000110: 72f4 8dbd 4d23 2c3c ece9 18be 5287 913d
00000120: e39d d13d d191 a43b d7d7 8abe c41d a0be
00000130: e48b 1bbd c8c0 423e 0eb1 2f3e bf72 b03d
00000140: 747b 423a add5 a3be 234a 4bbe d82d 90be
00000150: b26a 963e 0bd7 e13b 0796 f4bc 2fff 27be
00000160: 1425 413d d9c8 b2bd 3d42 aabd a764 03bd
00000170: 5e1c b53c 7946 0d3e 3589 253e 37e2 373e
00000180: f0ae ff3c 8b5a 9d3d 2cea 873d 7ff3 c73c
00000190: 4fef ff3d be9e debd ff2b 85bd dace d73d
000001a0: 3dcc 57bd 6ae8 e93d ccc0 063c 7dbd 1cbe
000001b0: 7f51 06be 0df4 933e 6b3c 47be 4111 afbd
000001c0: a28d ac3d 5969 0e3e ff14 a9bd 6f52 203e
000001d0: 8e8f ee3d c7d4 2cbe be35 c1bd 0d43 01be
000001e0: 9e90 74be fb2b a9bd 4fb0 233d 1b0d 0abe
000001f0: 88ec 26bc ffb9 b8be 678c 4e3e 286e 53be
00000200: 0cae c43d f479 203d da6c 803d 2288 00bc
00000210: 4583 933c 0971 d13c af6a ef3d 4aad 9ebd
00000220: 23e1 c0bd fd1a b43c 2ef6 143d 469f 0dbc
00000230: f27c 44bd e465 363d ef4b f13c 89a5 ac3c
00000240: 7002 3a3e 4b95 443e bad9 6ebe c49c 1f3e
00000250: acd7 dcbe c869 123e ee1f 7cbe a6ac 413e
00000260: b12f f43d 4a76 123d 2f48 ecbd 44d6 46bd
00000270: 80ad b8be 1a5b cd3c 7e69 f0bc aab8 043e
00000280: e10e a1be c9ca 89bd 1a13 4fbc 259e 853d
00000290: 52ca 3fbc b130 15be 5a5b 0d3e 7782 70bd
000002a0: 2a3b e03c b4de 0dbd 6ebd 8d3c 4690 02be
000002b0: 6cec 033e 60b0 32bd 7659 8c3c a425 e2bc
000002c0: dc50 023e 2cce fa3d 53ad 9fbd a125 3ebe
000002d0: 22fa 16be b06f 12bd d4ce 673d c3c3 0bbe
000002e0: ef51 14bd 9d12 793e 5f41 8d3e 80b5 263d
000002f0: b616 b9ba aa90 87be d98e 103e c96a 3b3d
00000300: 15a7 d0bd 5227 a63d 0eaf ec3d d03b a6bd
00000310: 0e36 3b3e ae73 ea3d cf53 383e 481e 89bc
00000320: 90c4 1b3e b7ed 6f3d e3b1 963d 54f8 0d39
00000330: fc15 cb3d c7aa d0bc 67ab bc3d 4cf2 d23d
00000340: c6b4 f23d acfc 923c af2f 1a3e 59c0 863a
00000350: 6765 6c3d 0dda 463e 73bc 0dbe ca45 1cbe
00000360: 23a9 443e 2258 7d3e ab4f 07be 0384 463d
00000370: 1389 02be 9496 e33d d396 59bd 7e6f 2ebe
00000380: 3776 b23d c330 afbd e811 553e 1619 003b
00000390: 92c9 093d 9550 1ebe 0b08 cbbb e40d 923d
000003a0: 63de 88bc 408b 44bd a431 ea3b d7f5 d0bd
000003b0: 0376 d1bc dfb6 ce3d 5998 f7ba 149f 9b3c
000003c0: 2828 d0bc 2c95 c9bd 2093 10be 8543 d93d
000003d0: 05b3 123e aa91 34be 8ba5 d53d 0b7c 013e
000003e0: 204f 1e3e 3ea2 b4bd 2b60 a7bd c0fe 9e3d
000003f0: 10ac b93d 98d8 cdbd 76a8 a23e 677f 69bd

conv1.bias f4 [32]
-0.04546006 0.059562992 0.053889234 0.06667057 0.114744306 -0.11780263 0.053354576 0.111397766
0.034002893 0.040737707 0.044100266 0.08308566 0.03339853 0.16363402 -0.009134255 -0.0045554517
0.17012969 -0.10300015 -0.12955168 -0.06252732 -0.08504565 -0.0063477657 0.0017253465 0.104383
-0.019666446 0.011464989 0.033598725 -0.11720925 -0.04592589 0.10753125 0.07708713 -0.0093201455
00000000: 5434 3abd 53f8 733d f5ba 5c3d 948a 883d
00000010: 10ff ea3d 8142 f1bd 548a 5a3d 8324 e43d
00000020: 9e46 0b3d 95dc 263d 7ba2 343d d128 aa3d
00000030: e6cc 083d ad8f 273e d8a7 15bc e645 95bb
00000040: 7a36 2e3e bef1 d2bd 32a9 04be 530e 80bd
00000050: 6a2c aebd eb00 d0bb 0625 e23a c1c6 d53d
00000060: 871b a1bc a6d7 3b3c d19e 093d 670b f0bd
00000070: c91c 3cbd 5839 dc3d dbdf 9d3d 86b3 18bc

conv2.weight f4 [64, 32, 3, 3]
-0.027988091 -0.0007451062 -0.050434764 -0.06486629 -0.04750111 0.020402933 -0.04243714 -0.045807816
-0.065277934 0.103291094 0.06957731 0.009444921 0.0051954794 0.06534636 -0.09950629 0.009534268
0.09930466 0.035341084 0.026238916 0.008650273 0.06243121 0.062500075 -0.039658234 -0.06910543
0.0005165616 -0.08297601 0.04020356 -0.06325961 0.06875217 -0.067372516 -0.12706205 -0.01802265
-0.12323852 -0.002804293 -0.09631632 -0.059511248 -0.03797599 0.09433895 -0.0053587016 0.029311229
-0.042082597 -0.048625734 -0.07861761 -0.03446651 0.04083681 0.03129363 -0.002093684 0.08545505
0.056501195 0.047366228 0.005455092 -0.029651783 -0.04518966 -0.017907234 -0.043559134 0.034113362
-0.019891141 0.010703365 0.014215712 0.08020698 -0.065845385 -0.038032047 0.095796235 -0.046917785
-0.13838357 0.010932745 -0.040608943 -0.08874426 -0.05270166 0.029370513 -0.01612379 -0.032033958
0.0024327545 0.0519795 0.016991504 0.02955888 0.055874035 0.0031595547 0.0020030555 0.021349559
-0.021420991 0.04333555 0.12580852 0.025511019 0.011376308 0.08260113 0.0037201028 -0.04779022
0.03864158 0.03305015 -0.048180886 0.046561074 -0.02581223 0.031274755 -0.0137995565 0.049112555
0.034068316 0.06449437 0.058910333 0.057380136 -0.031320054 0.008266632 0.014146809 0.056297246
0.038878284 -0.05276454 0.002723629 0.028786797 -0.13588853 -0.038148403 -0.011631574 0.11342368
0.033524297 0.0752549 -0.025568042 -0.05165102 -0.06517444 -0.06778964 -0.086728916 -0.04968121
-0.06404478 0.034775265 0.009915021 -0.050844237 -0.079091154 -0.10224491 0.02328029 0.057949014
0.053464435 0.028285641 0.056037508 0.021349533 0.020727618 0.11016408 0.05252173 -0.20908996
-0.10101842 -0.01262405 -0.13365276 -0.13479279 -0.056986634 -0.16111515 -0.09188805 -0.048768114
0.04994889 -0.019691298 -0.04301016 -0.07664385 -0.014245449 0.010362377 -0.049014054 -0.00032196214
-0.011023684 -0.072836824 -0.03188475 0.018388644 -0.10329184 -0.0037649663 -0.05250765 -0.06188875
0.011470504 -0.002755372 -0.03140603 0.117265984 0.03453673 -0.005268733 0.016936574 -0.0022897143
-0.04697579 0.03626621 -0.0410315 -0.0022442294 -0.01655141 -0.0036904353 -0.005473196 -0.029173136
-0.029566364 -0.08840653 -0.07263588 -0.0063036825 -0.14759248 -0.112455316 -0.01776294 -0.1016575
-0.16044015 -0.01764118 -0.113725014 -0.09475987 0.04885668 -0.07321959 0.011060552 0.03571948
0.046399284 -0.078733034 0.0700309 0.017743735 -0.08804953 -0.017074643 -0.0957695 -0.09240462
0.03506976 0.016929314 -0.08338483 -0.024761254 -0.081990905 -0.04444255 0.07726721 0.054465387
0.033523988 0.029599387 -0.033390272 0.062139682 0.064887956 -0.06882744 0.0009669891 0.09968387
0.031406645 0.082434714 0.08562407 0.021278547 0.014052997 0.002191102 0.044340312 -0.068369806
-0.027003497 -0.029911172 -0.04056739 0.020348808 0.063214466 0.07206578 -0.0074509466 -0.06004356
-0.03980547 -0.07688917 -0.033090256 -0.11291876 -0.13163513 0.036295697 -0.09791447 0.056414153
-0.16595183 -0.017667718 -0.12967005 -0.052611057 -0.06776992 -0.052030012 0.11957663 0.14389224
0.07089919 0.05836537 0.0029661874 0.07647043 -0.08559512 -0.057964113 -0.073197246 0.030093549
00000000: 4847 e5bc 3b53 43ba af94 4ebd 9ed8 84bd
00000010: 8690 42bd 0d24 a73c 91d2 2dbd faa0 3bbd
00000020: 70b0 85bd 488a d33d 8c7e 8e3d dfbe 1a3c
00000030: d73e aa3b 50d4 853d f4c9 cbbd 9e35 1c3c
00000040: 3e60 cb3d d0c1 103d fff2 d63c e0b9 0d3c
00000050: deb7 7f3d 0a00 803d ac70 22bd 2687 8dbd
00000060: dd69 073a 54ef a9bd 7dac 243d 418e 81bd
00000070: f0cd 8c3d 9afa 89bd 8e1c 02be 3da4 93bc
00000080: 7a64 fcbd 3bc8 37bb 7e41 c5bd 11c2 73bd
00000090: b68c 1bbd c834 c13d 0c98 afbb 1a1e f03c
000000a0: cd5e 2cbd c72b 47bd 4502 a1bd c12c 0dbd
000000b0: 8044 273d c02d 003d 3036 09bb 0f03 af3d
000000c0: cc6d 673d 1703 423d a1c0 b23b 4ce8 f2bc
000000d0: cb18 39bd 31b2 92bc 106b 32bd 74ba 0b3d
000000e0: bff2 a2bc 2b5d 2f3c 05e9 683c 8f43 a43d
000000f0: f2d9 86bd 7ec7 1bbd d130 c43d dd2c 40bd
00000100: 6cb4 0dbe 421f 333c 9055 26bd 8dbf b5bd
00000110: b2dd 57bd 6e9a f03c 0a16 84bc 0a36 03bd
00000120: d96e 1f3b 75e8 543d c431 8b3c 7725 f23c
00000130: 2cdc 643d 8810 4f3b b245 033b 45e5 ae3c
00000140: 137b afbc 9e80 313d f3d3 003e 7cfc d03c
00000150: b263 3a3c c82a a93d f8cc 733b adbf 43bd
00000160: a246 1e3d 985f 073d 5259 45bd d3b6 3e3d
00000170: 2b74 d3bc f519 003d 8917 62bc 3f2a 493d
00000180: 388b 0b3d a015 843d f64b 713d 6f07 6b3d
00000190: 7549 00bd c570 073c 04c8 673c f197 663d
000001a0: d63e 1f3d a11f 58bd e97e 323b 4ad2 eb3c
000001b0: 5d26 0bbe 8041 1cbd 5b92 3ebc ad4a e83d
000001c0: c650 093d 3e1f 9a3d 1274 d1bc 0590 53bd
000001d0: 2d7a 85bd 4bd5 8abd ee9e b1bd 867e 4bbd
000001e0: e929 83bd 8270 0e3d 9d72 223c 0c42 50bd
000001f0: 8bfa a1bd c865 d1bd 4fb6 be3c f25b 6d3d
00000200: 86fd 5a3d 4ab7 e73c 9687 653d 37e5 ae3c
00000210: f7cc a93c b59d e13d 0721 573d ae1b 56be
00000220: bfe2 cebd 1ad5 4ebc 45dc 08be 1f07 0abe
00000230: d16a 69bd 5ffb 24be cd2f bcbd 13c1 47bd
00000240: 3597 4c3d a54f a1bc 6c2b 30bd 73f7 9cbd
00000250: be65 69bc f6c6 293c f6c2 48bd 07cd a8b9
00000260: af9c 34bc 792b 95bd 9599 02bd c8a3 963c
00000270: ac8a d3bd a7bd 76bb 4312 57bd 0f7f 7dbd
00000280: c8ee 3b3c 7993 34bb 9ca3 00bd 2629 f03d
00000290: 6376 0d3d 56a5 acbb 92be 8a3c 080f 16bb
000002a0: b069 40bd e18b 143d a510 28bd ec13 13bb
000002b0: d396 87bc 3bdb 71bb 7f58 b3bb 80fc eebc
000002c0: 2935 f2bc 7c0e b5bd 1fc2 94bd 1f8f cebb
000002d0: 7c22 17be f94e e6bd 9683 91bc cf31 d0bd
000002e0: 6c4a 24be 3c84 90bc a9e8 e8bd 7611 c2bd
000002f0: f11d 483d 27f4 95bd 5137 353c 974e 123d
00000300: 2d0d 3e3d c93e a1bd 5c6c 8f3d 4f5b 913c
00000310: 5053 b4bd 1fe0 8bbc cd22 c4bd a23e bdbd
00000320: 4fa5 0f3d 58af 8a3c aac5 aabd 1dd8 cabc
00000330: d9ea a7bd 6409 36bd 453e 9e3d 1917 5f3d
00000340: 7350 093d 6a7a f23c 3dc4 08bd 2e86 7e3d
00000350: fae3 843d 67f5 8cbd 8a7d 7d3a 0f27 cc3d
00000360: 41a4 003d 88d3 a83d ac5b af3d 5950 ae3c
00000370: 8b3e 663c 9798 0f3b 309e 353d 7805 8cbd
00000380: 7036 ddbc 4608 f5bc fe29 26bd 8bb2 a63c
00000390: 9676 813d 3997 933d 1227 f4bb 3cf0 75bd
000003a0: 0f0b 23bd 1278 9dbd a689 07bd f341 e7bd
000003b0: 5ccb 06be ccaa 143d 6287 c8bd 8712 673d
000003c0: 47ef 29be e4bb 90bc 3ac8 04be b17e 57bd
000003d0: f5ca 8abd 6c1d 55bd 98e4 f43d 7d58 133e
000003e0: 9833 913d 8710 6f3d 5e64 423b 879c 9c3d
000003f0: 7f4c afbd c76b 6dbd 70e8 95bd bf86 f63c

conv2.bias f4 [64]
0.034906875 -0.050004903 -0.026765304 -0.03042809 0.07236237 -0.030869443 0.03232266 0.062152684
0.04777154 0.014149819 0.012468316 0.0013512673 0.039835867 -0.02629844 0.09390728 -0.0066618705
0.026826525 -0.02272148 -0.017675694 0.028219027 0.006524752 -0.012072814 0.025859864 -0.038352214
-0.024114236 0.035993077 -0.031830516 0.016761849 0.039132033 0.10761143 0.081818536 0.04028513
-0.01241841 0.03680654 0.022846818 -6.641707e-26 0.013994624 0.02638415 0.0030909944 -0.026933007
0.036342356 0.067069925 -0.053174216 0.058486026 0.073698856 0.0405843 0.031046007 0.048635755
-0.03718113 0.03561693 -0.015284077 -0.007927842 0.065599315 0.012644033 -0.03887175 -0.0070910747
0.035447538 -0.018388484 -0.053897344 0.013799202 0.06528226 0.037552986 0.09364658 -0.0019756993
00000000: 83fa 0e3d f1d1 4cbd e942 dbbc 5444 f9bc
00000010: b932 943d eae1 fcbc c464 043d d093 7e3d
00000020: 17ac 433d a4d4 673c e847 4c3c 021d b13a
00000030: ef2a 233d d36f d7bc 7652 c03d d24b dabb
00000040: 4dc3 db3c 6622 babc 9ecc 90bc 972b e73c
00000050: 96cd d53b 0dcd 45bc 11d8 d33c 3617 1dbd
00000060: 388b c5bc 7a6d 133d b760 02bd 2550 893c
00000070: e948 203d 6263 dc3d 7a90 a73d 0502 253d
00000080: 9676 4bbc 74c2 163d 4029 bb3c d270 a495
00000090: b549 653c 9323 d83c 4892 4a3b 9ca2 dcbc
000000a0: b9db 143d f55b 893d 35cd 59bd 0b8f 6f3d
000000b0: 6def 963d b93b 263d 3254 fe3c 4936 473d
000000c0: 3e4b 18bd 0fe3 113d 116a 7abc c8e3 01bc
000000d0: ef58 863d eb28 4f3c fc37 1fbd 3f5c e8bb
000000e0: 7031 113d 72a3 96bc 76c3 5cbd 0c16 623c
000000f0: b5b2 853d 29d1 193d c7c9 bf3d bc7a 01bb

conv3.weight f4 [128, 64, 3, 3]
0.0002231105 0.036985513 -0.0017259334 -0.007357026 0.031106243 0.0053082 -0.03330545 0.003915342
-0.05260206 0.017342446 0.026868066 0.00093977625 0.04628199 0.103238516 0.015972368 0.15275168
0.08138073 0.0340369 -0.06747596 -0.037228264 -0.04715372 -0.0039655934 -0.025124269 -0.004933912
-0.002279372 0.007599213 0.01708985 -0.021527449 -0.009434172 -0.010610603 -0.026504027 -0.008413277
-0.014661065 0.038500752 -0.03170977 0.02364146 0.009361474 0.028146116 -0.040123444 0.01388949
0.043349467 -0.013287302 -0.034380857 0.018731609 -0.0056858617 -4.586702e-20 3.070781e-19 2.5698512e-25
9.2343e-14 -3.992891e-14 -4.172923e-14 -2.7741942e-13 -1.32391e-13 -1.7414692e-16 0.034502 -0.013256037
-0.029001286 0.04535995 0.047777057 -0.018863605 0.042415116 -0.016504271 0.004894191 -0.035739377
-0.07233634 -0.04116219 0.0067973877 -0.11721946 -0.09401538 0.024537023 -0.025185334 -0.05778962
0.06579342 0.02431346 -0.04599976 0.039257858 0.026699267 -0.06954102 0.041376185 -0.028437477
-0.04842047 -0.036462188 -0.044164833 -0.094576545 -0.024760202 -0.010480484 -0.02167088 0.025736002
-0.0005585845 0.035724208 -0.0097394325 -0.02481046 0.0017326726 0.0020215083 -0.00778263 -0.0050203674
0.06888288 0.017455375 0.021583837 -0.0021880416 -0.023305215 -0.0008646304 0.024015315 -0.030076437
-0.0061215186 -0.0004931012 -0.04847399 -0.029857326 0.003273749 0.010737334 -0.0038547162 0.04004505
0.0071679177 0.044831164 0.03180458 -0.007341858 -0.014780918 -0.08883504 -0.03390944 -0.010935468
-0.10257742 -0.10580907 -0.061202787 -0.0962493 -0.11866956 -0.06936345 -0.077782534 -0.11742902
-0.069325395 -0.038374756 -0.069496624 -0.091310166 0.003694748 -0.048346337 -0.029343937 -0.004146725
0.010172178 0.005835923 0.030564535 0.095573716 0.015658244 0.025686247 0.04238948 0.030515669
-0.062738225 -0.0332617 0.07110645 -0.07360615 -0.053456564 0.0005065491 -0.04135639 -0.0008037365
-0.018197777 -0.012566957 0.019533347 -0.016151842 0.008326497 0.025108455 -0.039948408 -0.044077534
-0.012940286 -0.031194773 0.023966549 -0.10492278 -0.044916388 0.045076113 0.03144111 -0.03001608
-0.029338991 -0.040798184 -0.025066925 -0.017431468 -0.051168002 -0.08033651 -0.05832559 -0.15798047
-0.13961186 -0.045434196 -0.13020213 -0.11190597 0.019273661 -0.024319567 0.02520453 0.09404944
0.016535994 -0.05005003 0.08581424 -0.005752909 -0.050994925 0.015906852 -0.045536608 -0.09436431
0.01395795 -0.059874445 -0.09096487 0.051130243 -0.0031997636 -0.014795572 -0.044539176 0.011600147
-0.012339889 0.07316216 0.05117677 0.016011858 0.039277073 -0.011206299 0.0022936128 0.00026190048
-0.015973851 -0.024008302 -0.0042047407 -0.02297343 -0.07500436 -0.023553958 -0.060342386 -0.049984213
-0.043132585 0.022612017 0.018773045 0.011400863 0.036094267 -0.007350075 0.0036792634 0.0047904286
0.029546846 -0.021167768 0.0054497616 0.05092633 0.013396016 0.06725159 0.060573034 0.040333077
0.021250948 0.04281429 -1.7967209e-07 2.0962071e-08 1.2147663e-08 -1.6233852e-07 1.3003508e-10 -1.9078054e-07
-6.0241643e-07 -1.1208338e-09 -3.9854763e-07 -0.007525265 -0.014842966 -0.082300715 0.030934079 -0.02306072
-0.12557474 0.03080822 -0.024879934 -0.095888026 -0.045458358 0.02046045 0.030143302 0.010300759
00000000: c5f2 6939 1f7e 173d b738 e2ba 3513 f1bb
00000010: 85d2 fe3c 69f0 ad3b 4c6b 08bd 454c 803b
00000020: 4275 57bd bf11 8e3c 6b1a dc3c 515b 763a
00000030: 2f92 3d3d b76e d33d 7cd8 823c f06a 1c3e
00000040: f1aa a63d 476a 0b3d d630 8abd aa7c 18bd
00000050: 4224 41bd cff1 81bb 69d1 cdbc a7ac a1bb
00000060: 8461 15bb d202 f93b 0300 8c3c 555a b0bc
00000070: c991 1abc 18d8 2dbc f91e d9bc d7d7 09bc
00000080: f734 70bc f7b2 1d3d 1be2 01bd bcab c13c
00000090: de60 193c af92 e63c 7b58 24bd be90 633c
000000a0: 368f 313d fcb2 59bc f1d2 0cbd 0873 993c
000000b0: 7750 babb d399 589f 5544 b520 eb10 9f16
000000c0: 1ef0 cf29 e6d2 33a9 87ee 3ba9 5a2c 9caa
000000d0: 1c0f 15aa 19c7 48a5 f851 0d3d d92f 59bc
000000e0: 1b94 edbc 5bcb 393d e0b1 433d d987 9abc
000000f0: 79bb 2d3d f733 87bc 735f a03b 7463 12bd
00000100: 1325 94bd af99 28bd 9fbc de3b c210 f0bd
00000110: 238b c0bd de01 c93c 7951 cebc cfb4 6cbd
00000120: b3be 863d 052d c73c 3f6a 3cbd d9cc 203d
00000130: 6cb8 da3c 866b 8ebd 137a 293d b6f5 e8bc
00000140: 8b54 46bd 6059 15bd 2fe6 34bd 59b1 c1bd
00000150: e8d5 cabc 56b6 2bbc 2187 b1bc 4fd4 d23c
00000160: f96d 12ba 8c53 123d 2492 1fbc 4e3f cbbc
00000170: d81a e33a 487b 043b 6f05 ffbb e581 a4bb
00000180: 7812 8d3d 93fe 8e3c 96d0 b03c 3f65 0fbb
00000190: 94ea bebc 5da8 62ba c4bb c43c dc62 f6bc
000001a0: 0597 c8bb 7643 01ba aa8c 46bd 5a97 f4bc
000001b0: 658c 563b a5eb 2f3c 689f 7cbb 4706 243d
000001c0: dae0 ea3b e2a0 373d 8545 023d f893 f0bb
000001d0: aa2b 72bc 25ef b5bd a0e4 0abd ad2a 33bc
000001e0: 1c14 d2bd 6db2 d8bd c6af 7abd 5a1e c5bd
000001f0: 0709 f3bd 6d0e 8ebd 734c 9fbd a07e f0bd
00000200: 79fa 8dbd d92e 1dbd 3f54 8ebd d300 bbbd
00000210: 9623 723b cf06 46bd b262 f0bc 40e1 87bb
00000220: 35a9 263c 453b bf3b 7a62 fa3c 27bc c33d
00000230: b845 803c f76b d23c 97a0 2d3d fffb f93c
00000240: e67c 80bd 6c3d 08bd 42a0 913d d2be 96bd
00000250: 45f5 5abd efc9 043a 5165 29bd d8b1 52ba
00000260: 8113 95bc a3e5 4dbc 6604 a03c de50 84bc
00000270: dc6b 083c 3fb0 cd3c f1a0 23bd a58a 34bd
00000280: 7e03 54bc 2e8c ffbc 7f55 c43c c1e1 d6bd
00000290: 3ffa 37bd bba1 383d 65c8 003d 48e4 f5bc
000002a0: 5358 f0bc ff1b 27bd 2759 cdbc 70cc 8ebc
000002b0: 8a95 51bd 7887 a4bd d0e6 6ebd a2c5 21be
000002c0: 69f6 0ebe 3519 3abd b553 05be f52e e5bd
000002d0: cce3 9d3c d439 c7bc bb79 ce3c fe9c c03d
000002e0: 7e76 873c 4301 4dbd 60bf af3d e682 bcbb
000002f0: 0ee0 50bd 164f 823c 9884 3abd 1342 c1bd
00000300: e3af 643c e83e 75bd ca4b babd f26d 513d
00000310: 20b3 51bb 2069 72bc b66e 36bd 8b0e 3e3c
00000320: 3f2d 4abc 0bd6 953d bc9e 513d 4d2b 833c
00000330: ffe0 203d a09a 37bc 7050 163b b04f 8939
00000340: 98db 82bc 0fad c4bc ecc7 89bb c632 bcbc
00000350: e39b 99bd 3bf4 c0bc 9429 77bd 3fbc 4cbd
00000360: cbab 30bd d63c b93c eec9 993c afca 3a3c
00000370: 95d7 133d e6d8 f0bb cc1f 713b 07f9 9c3b
00000380: 3a0c f23c 0768 adbc ea93 b23b 2198 503d
00000390: f77a 5b3c 34bb 893d 6e1b 783d 4c34 253d
000003a0: 7816 ae3c 095e 2f3d e3eb 40b4 1510 b432
000003b0: fdb1 5032 464f 2eb4 9ff9 0e2f 5bd9 4cb4
000003c0: beb5 21b5 d50b 9ab0 f8f7 d5b4 8096 f6bb
000003d0: e92f 73bc 478d a8bd 7769 fd3c d6e9 bcbc
000003e0: aa96 00be 8561 fc3c 01d1 cbbc f160 c4bd
000003f0: 8b32 3abd ac9c a73c 16ef f63c 84c4 283c

conv3.bias f4 [128]
-0.0060507287 -0.007699154 0.0153911095 -0.020833915 -0.082884766 0.1923639 0.0012742088 0.11529357
0.037606135 -0.022105997 0.02130915 0.0018136491 0.057406723 0.069373496 0.05279403 -0.022193804
-1.3371243e-25 -0.00050097384 -0.0006112233 -0.01586167 -3.3335704e-25 -0.008828616 0.003965956 0.06269528
0.010997361 0.030312167 0.107946366 0.04038338 0.08415421 -0.025122551 -0.011046359 0.0035863079
0.14447767 -7.377683e-10 0.036813453 -0.0023952445 -0.0061379224 -0.0058863945 0.034912672 -0.004189136
0.10592939 0.02560419 -0.008541491 -0.002321881 -0.007854344 0.02150797 0.025686603 0.036043964
0.04250152 -0.0031116714 0.07747505 0.029139882 0.020752205 0.0041020666 -0.018764317 0.029650616
0.077569954 0.037688877 -0.0125317285 -5.3245613e-11 0.066852316 0.028563662 0.0674519 0.06563152
-0.01348295 -0.0012375222 -0.0019930569 -0.0026626217 0.031717837 0.04048645 -4.909012e-22 -0.002386049
0.08318966 0.0152592985 -8.136558e-09 0.015014992 -0.0008740988 0.011814094 0.0211474 0.01609252
0.009277923 -0.00017356758 -0.029952882 -0.022237632 0.050879836 0.037448283 0.016778938 0.039645597
0.024145996 0.06290675 -0.012011325 -0.0036458857 -0.05314688 0.080771685 -0.022194207 0.018580018
-1.1482929e-10 0.004401999 0.09317565 0.10330311 -0.056550987 -0.032119934 0.044043403 -0.061139915
0.0072788764 0.105049305 -0.001820883 -7.860813e-19 0.09752501 -0.004360085 -0.007029909 0.029444711
-0.0036909939 0.13474448 0.010455711 0.059862245 0.05663776 -0.00012406959 0.063232355 0.13951191
-0.10543606 0.010900808 0.0052033947 -0.0029694953 0.0065982994 -0.037990708 0.07257904 -1.8435639e-27
00000000: 3145 c6bb 2f49 fcbb fe2a 7c3c e3ab aabc
00000010: 7dbf a9bd 0bfb 443e 5a03 a73a 091f ec3d
00000020: e408 1a3d a317 b5bc 8790 ae3c f7b7 ed3a
00000030: 5023 6b3d b113 8e3d 8e3e 583d c8cf b5bc
00000040: 2987 2596 c953 03ba 803a 20ba 55f0 81bc
00000050: 8856 ce96 e6a5 10bc daf4 813b 6266 803d
00000060: 462e 343c 3951 f83c fc12 dd3d 0b69 253d
00000070: 0b59 ac3d cfcd cdbc cafb 34bc 4308 6b3b
00000080: f4f1 133e d4cb 4ab0 b4c9 163d 89f9 1cbb
00000090: a020 c9bb a8e2 c0bb 9700 0f3d 0545 89bb
000000a0: 82f1 d83d e1bf d13c 9cf1 0bbc b32a 18bb
000000b0: 82af 00bc 7b31 b03c b66c d23c d6a2 133d
000000c0: 1316 2e3d 2fed 4bbb 3dab 9e3d c3b6 ee3c
000000d0: 8700 aa3c a16a 863b a0b7 99bc d9e5 f23c
000000e0: ffdc 9e3d a75f 1a3d e151 4dbc 3b2d 6aae
000000f0: dee9 883d 57fe e93c 3924 8a3d d169 863d
00000100: 97e7 5cbc 5b34 a2ba f29d 02bb 617f 2ebb
00000110: 90ea 013d 1fd5 253d a45d 149c 425f 1cbb
00000120: 575f aa3d 2302 7a3c f6c8 0bb2 7101 763c
00000130: c723 65ba e78f 413c 503d ad3c 76d4 833c
00000140: 6e02 183c b1ff 35b9 bf5f f5bc b22b b6bc
00000150: 6067 503d 5f63 193d fc73 893c 6c63 223d
00000160: d3cd c53c 41d5 803d 26cb 44bc d0ef 6ebb
00000170: 8bb0 59bd a06b a53d a0d0 b5bc 1f35 983c
00000180: 2583 fcae a53e 903b e0d2 be3d 9590 d33d
00000190: 02a2 67bd 3190 03bd db66 343d d96d 7abd
000001a0: a483 ee3b 1724 d73d b2aa eeba a002 68a1
000001b0: 31bb c73d 0bdf 8ebb 275b e6bb 0936 f13c
000001c0: 9ae4 71bb 75fa 093e 6e4e 2b3c 1d32 753d
000001d0: fffc 673d ad18 02b9 f77f 813d 36dc 0e3e
000001e0: dcee d7bd 4d99 323c 3d81 aa3b dd9b 42bb
000001f0: 8c36 d83b 259c 1bbd 52a4 943d eb0f 1293

act_conv1.weight f4 [4, 128, 1, 1]
0.020024741 -0.0067097913 -0.28216383 -0.0047465926 -0.32271978 0.06628479 -0.037553623 -0.046078607
0.11440307 0.2030109 -0.013867769 0.012220209 0.15362482 0.09527256 0.3044842 0.004917317
1.929899e-39 -1.740494e-39 5.88818e-39 1.6563848e-38 2.861728e-39 -0.03310711 -0.032162633 0.10149763
0.004856552 0.056739986 0.13638297 -0.05095106 0.060511887 -1.4119402e-13 0.086782105 0.032085367
0.48191273 8.31305e-39 -0.030391926 -1.2336558e-38 -0.010222925 -1.0116198e-38 -0.09991056 -0.04830722
0.17304882 0.041066203 -0.015653238 0.14792722 -0.01948295 0.18377195 0.095908865 0.0034931519
-0.12957679 -0.11554808 0.16077033 -0.06253971 -0.057447374 0.006126007 -8.140074e-39 -0.060647238
0.1477081 0.07515577 -5.3913567e-09 4.139115e-39 0.100162804 -0.03567137 0.25848788 0.00010407911
1.4064288e-38 0.012791935 6.389597e-39 0.0009932509 -0.009081284 -0.11721215 -8.80373e-39 -7.716838e-06
0.1317222 -0.039659556 1.633384e-38 -0.017741786 -1.4084002e-38 -0.009807786 -0.15767919 0.034075994
-0.03410199 -3.425574e-39 0.021299876 -9.23104e-39 0.25760612 0.017169915 0.07979137 0.14849974
0.013021581 0.19444047 -0.100729115 4.782038e-39 -0.22056048 0.17511164 1.5432094e-38 0.04337731
1.0553037e-38 -0.017905321 0.091833964 0.07674843 7.231361e-39 -0.09838239 -0.057998314 0.08693345
0.031519856 0.17224096 3.720366e-39 -1.3157165e-38 0.13095969 -8.581989e-39 -0.103999294 0.65407014
2.57777e-40 0.06412062 -0.06461674 0.20941117 0.0003280992 0.20452821 0.19777462 0.08625794
-0.3193569 -6.576851e-06 -0.096369356 0.022833651 -0.026040277 6.83876e-39 0.13583069 4.33286e-40
0.03998961 -0.0033520209 0.011804402 -0.019718016 0.028677575 -0.011815945 0.034996405 -0.02903683
0.0049946774 -0.009698045 0.030142574 3.598771e-15 -0.00032976578 -0.0011843949 -0.038624395 -0.03688494
-4.970945e-39 1.6943723e-38 -7.843924e-39 -0.013381556 -6.692171e-39 0.003101523 0.023798626 -0.011564981
-0.012229962 -0.019307438 -0.006286999 -0.020438617 -0.020854054 -2.736253e-17 0.0014227262 -0.0061583584
0.00063876266 -2.5682157e-38 0.003428325 1.4512385e-38 -0.06900903 -1.0903471e-38 0.006561235 -0.0020842839
0.0034815797 -0.00721771 -0.058142107 -0.026497735 0.008063137 0.0030640909 -0.02615671 0.010256056
-0.053290144 -0.091735154 0.0063730935 0.01523246 -0.0034713408 -0.02775746 4.68553e-39 -0.06105632
-0.0080156075 0.0012938576 0.003749146 1.5653698e-38 0.011915888 -0.020142915 0.027072392 0.0076920157
1.436221e-38 -0.00030638473 7.284438e-39 -2.714626e-12 -0.031579792 -0.09325227 -1.422763e-38 -0.00026060498
0.005455846 0.03308308 -1.22011e-38 -0.010302833 1.1774766e-38 -0.023341741 -0.01651877 -0.04727435
-0.08750177 2.351227e-39 0.0251119 -0.00993742 -0.00022681193 0.0042262985 -0.004804071 -0.0122310305
-0.009167437 0.0026653383 -0.011265218 1.1834107e-38 0.0014487557 0.0032334614 -1.5310402e-38 0.0355158
-8.7502e-39 -0.07055015 -0.007380788 0.003168729 -0.04528507 -0.042462677 -0.00105375 0.00398515
-0.089894414 -0.027291777 1.728332e-38 -1.566406e-39 -0.00021553863 -1.7792881e-38 -0.01134885 -0.017030394
-4.544561e-39 -0.021972355 -0.025663927 0.003258855 0.01565065 -0.0068530715 -0.058076303 -0.01931028
-0.028132811 -0.0003930374 -0.0666471 0.009540879 -0.07853647 -1.2666397e-38 -0.015113524 -3.166877e-39
00000000: ed0a a43c cfdd dbbb c777 90be 4e89 9bbb
00000010: 873b a5be 52c0 873d d4d1 19bd ecbc 3cbd
00000020: 284c ea3d 17e2 4f3e a435 63bc 4637 483c
00000030: d34f 1d3e 431e c33d 5ae5 9b3e 7221 a13b
00000040: c603 1500 caf3 1280 da1d 4000 455d b400
00000050: 5529 1f00 529b 07bd f7bc 03bd fddd cf3d
00000060: b623 9f3b 3068 683d faa7 0b3e 0fb2 50bd
00000070: 50db 773d 68f8 1eaa d1ba b13d f26b 033d
00000080: 44bd f63e 6785 5a00 7df8 f8bc 4e55 8680
00000090: 0e7e 27bc d827 6e80 e89d ccbd cbdd 45bd
000000a0: b633 313e 0935 283d 383b 80bc 3c7a 173e
000000b0: b59a 9fbc b72e 3c3e de6b c43d 5ded 643b
000000c0: c7af 04be 79a4 ecbd faa0 243e d214 80bd
000000d0: f04d 6bbd acbc c83b 37a3 5880 3d69 78bd
000000e0: cb40 173e 45eb 993d e03e b9b1 2b12 2d00
000000f0: 2822 cd3d 241c 12bd 8658 843e 0c45 da38
00000100: 8325 9900 4495 513c 9993 4500 f82f 823a
00000110: aac9 14bc ec0c f0bd 38dd 5f80 9177 01b7
00000120: 2fe2 063e 0f72 22bd 1adc b100 3957 91bc
00000130: 785c 9980 d6b0 20bc a776 21be 4593 0b3d
00000140: 87ae 0bbd 1b4d 2580 147d ae3c 6284 6480
00000150: f3e4 833e eca7 8c3c a869 a33d 5110 183e
00000160: 7858 553c 671b 473e 114b cebd 6012 3400
00000170: 9bda 61be 7750 333e 660a a800 68ac 313d
00000180: 93e9 7200 2eae 92bc 7213 bc3d 482e 9d3d
00000190: 18be 4e00 b57c c9bd a48f 6dbd 2a0a b23d
000001a0: f71a 013d ef5f 303e de82 2800 d344 8f80
000001b0: 4c1a 063e 1873 5d80 95fd d4bd 2471 273f
000001c0: 94ce 0200 ac51 833d c855 84bd e26f 563e
000001d0: bb04 ac39 d86f 513e 6e85 4a3e 01a8 b03d
000001e0: bf82 a3be b8ae dcb6 4c5d c5bd a30d bb3c
000001f0: 6b52 d5bc ae77 4a00 3317 0b3e d3b7 0400
00000200: 25cc 233d 94ad 5bbb 4067 413c ad87 a1bc
00000210: 3ced ea3c aa97 41bc 6458 0f3d a5de edbc
00000220: 64aa a33b 8de4 1ebc 8fed f63c cea8 8127
00000230: 6ae4 acb9 b33d 9bba 9d34 1ebd aa14 17bd
00000240: f920 3680 3580 b800 ab69 5580 503e 5bbc
00000250: 0ddf 4880 ec42 4b3b 56f5 c23c 0c7b 3dbc
00000260: 2e60 48bc a22a 9ebc 2c03 cebb e36e a7bc
00000270: 1fd6 aabc f35f fca3 c57a ba3a 0ecc c9bb
00000280: a372 273a b4d3 0b81 c0ad 603b a006 9e00
00000290: 9b54 8dbd 71ba 7680 a1ff d63b 7b98 08bb
000002a0: 372b 643b 8a82 ecbb 6b26 6ebd c711 d9bc
000002b0: 3f1b 043c eace 483b 9946 d6bc 0409 283c
000002c0: c446 5abd a4df bbbd 62d5 d03b 9191 793c
000002d0: 6f7f 63bb 9d63 e3bc 5a05 3300 3116 7abd
000002e0: e553 03bc a896 a93a 3bb4 753b 2474 aa00
000002f0: db3a 433c c102 a5bc ecc6 dd3c 4e0d fc3b
00000300: 0064 9c00 43a2 a0b9 0d52 4f00 5b06 3fac
00000310: d059 01bd 0cfb bebd d8ec 9a80 cfa1 88b9
00000320: f4c6 b23b 2082 073d b4db 8480 37cd 28bc
00000330: 4237 8000 2e37 bfbc 5f52 87bc c0a2 41bd
00000340: 2134 b3bd 449a 1900 79b7 cd3c 8fd0 22bc
00000350: 5dd4 6db9 c37c 8a3b 786b 9dbb a964 48bc
00000360: 0533 16bc f5ac 2e3b c091 38bc addc 8000
00000370: 2de4 bd3a 7be8 533b 2cb7 a680 0479 113d
00000380: ff47 5f80 997c 90bd 8ada f1bb 73aa 4f3b
00000390: d67c 39bd 58ed 2dbd fc1d 8aba dc95 823b
000003a0: 901a b8bd 0193 dfbc dd32 bc00 810e 1180
000003b0: 3602 62b9 50bf c180 87f0 39bc 5383 8bbc
000003c0: 637c 3180 5eff b3bc 283d d2bc 8492 553b
000003d0: cb35 803c bb8f e0bb 6be1 6dbd 9830 9ebc
000003e0: c876 e6bc 9610 ceb9 467e 88bd 5951 1c3c
000003f0: bbd7 a0bd c3ec 8980 b79e 77bc f77b 2280

act_conv1.bias f4 [4]
0.047373608 -0.08642764 -0.040883854 0.058968488
00000000: d40a 423d f900 b1bd d475 27bd f188 713d

act_fc1.weight f4 [100, 400]
-0.012731224 0.012745347 0.004259557 -0.015412453 -0.05621857 -0.047573093 -0.035147082 -0.0054475893
-0.013889426 -0.04586386 -0.026788594 0.014687774 -0.026091218 -0.013640485 -0.046333063 -0.04416124
-0.02035117 -0.005006811 -0.0041662613 -0.013849554 0.004336026 -0.01233375 0.0032320402 -0.0042976816
-0.019273607 -0.0015421839 -0.014822903 0.016105201 -0.016208336 -0.021641064 0.0015423937 0.0059661586
-0.00059156923 -0.009550951 -0.013623644 0.004684883 0.010399668 0.0019636627 -0.00406527 -0.04187544
-0.04558741 -0.057529196 -0.017861713 -0.001747103 -0.0002067512 0.010051613 0.00035948094 -0.020241126
-0.043244865 -0.06729419 -0.064304546 -0.043930065 -0.01724563 -0.015274293 0.0067952326 0.0014637206
-0.0027330685 -0.0051051257 -0.048517097 -0.056119367 -0.028076166 0.006137195 -0.018325927 0.007094144
0.0007457719 -0.012207552 0.0085400585 -0.020018274 -0.02325984 -0.028617613 -0.007687784 0.014756145
0.026830105 0.0050649736 -0.023598423 0.0019458247 -0.012835522 0.018356267 0.0090773925 0.00020388514
-0.028800294 0.028913463 -0.028952397 -0.006755307 -0.056102127 -0.050358742 -0.021539444 -0.011147094
-0.0014330003 -0.014604012 0.039750487 0.044464238 -0.06982882 0.01414046 -0.07853037 -0.0595753
-0.015712561 -0.008216719 -0.011863853 -0.03653376 4.176435e-10 9.223168e-11 -3.3376554e-10 6.0886785e-10
-3.334491e-10 5.3619553e-10 9.074725e-10 -5.836841e-10 -8.0808893e-10 3.3227693e-10 -1.2775483e-10 6.014183e-10
-1.8663354e-10 2.424356e-10 2.9922315e-10 1.8068222e-08 1.3955194e-09 1.2249046e-09 2.735583e-10 6.167903e-11
-4.975312e-10 -1.2111834e-09 1.5981762e-07 -5.0917016e-08 2.2431473e-07 1.6147479e-06 3.026566e-06 6.2637287e-07
3.3398912e-08 -1.7847257e-10 -2.951545e-10 5.814001e-10 1.9133935e-07 1.3467978e-07 5.6781107e-07 2.244376e-07
7.785197e-07 6.164085e-07 9.913781e-08 5.8393995e-10 1.64462e-10 3.008495e-10 6.467117e-07 9.1333e-07
1.5161804e-06 8.0890277e-07 3.2740724e-07 2.5753926e-07 4.3377844e-07 -2.8281023e-13 -2.1743948e-10 -5.0913684e-10
8.754837e-07 1.5684712e-07 5.6889434e-07 2.5601258e-07 2.9913062e-07 1.3239862e-05 1.9418671e-09 -1.2678514e-10
1.252577e-10 3.271788e-10 2.0685288e-08 -1.3239596e-08 4.5636174e-08 9.46505e-07 2.1714057e-07 4.149989e-06
1.9491887e-08 -1.5115992e-09 -3.000748e-10 -8.0164364e-10 2.7874855e-06 7.3199345e-07 7.940934e-07 1.0048016e-07
9.2631645e-08 2.4748228e-06 1.2875886e-07 -1.2216551e-10 -2.121956e-10 -6.8056075e-11 4.7879944e-10 7.126539e-10
9.284522e-10 8.286227e-10 7.177251e-10 -8.67421e-10 1.3306126e-09 -4.174449e-11 -2.6874897e-10 -8.1867936e-11
-1.0393163e-09 -1.5482782e-09 -2.500557e-10 -9.224736e-10 -7.538602e-10 3.823185e-10 4.1495024e-10 -2.3284244e-10
9.248296e-34 -6.212964e-14 2.6633643e-12 -3.2088e-12 -2.820385e-11 -1.7164345e-12 2.715965e-12 -4.037134e-12
4.0423188e-13 -5.5119596e-21 3.0257328e-15 -2.2696959e-08 1.6078222e-07 5.6380554e-09 1.254145e-08 4.308627e-08
-1.6408416e-08 -2.061042e-08 4.6401034e-09 3.0581058e-13 2.1633047e-12 3.463053e-08 -4.0241693e-07 -3.4103078e-07
-1.395223e-07 2.6592815e-07 -1.5633756e-07 -4.707255e-08 2.0714386e-09 5.8158513e-12 2.4359674e-12 -3.242618e-07
-9.1636826e-07 -9.0940055e-08 8.7731394e-07 8.6312504e-08 6.68006e-07 -2.5128938e-07 6.01886e-08 7.1720776e-12
-8.203545e-12 -3.6414807e-08 4.1308044e-07 -8.8688566e-08 2.2404588e-08 2.637235e-07 7.457216e-07 1.1258566e-07
-1.7513213e-07 1.0862595e-10 3.2505904e-13 1.0763103e-08 2.7785288e-07 6.6924525e-07 2.8511295e-07 -2.8100088e-08
00000000: a096 50bc dcd1 503c c193 8b3b 8384 7cbc
00000010: 7145 66bd 01dc 42bd 63f6 0fbd b181 b2bb
00000020: 7a90 63bc bedb 3bbd c173 dbbc fda4 703c
00000030: 40bd d5bc 577c 5fbc bdc7 3dbd 6be2 34bd
00000040: 7fb7 a6bc 2d10 a4bb 2285 88bb 3de9 62bc
00000050: 3915 8e3b 7f13 4abc a3d0 533b 91d3 8cbb
00000060: afe3 9dbc 1b23 caba c3db 72bc 0eef 833c
00000070: 58c7 84bc 9a48 b1bc 252a ca3a c47f c33b
00000080: 8a13 1bba 987b 1cbc b435 5fbc a683 993b
00000090: 5e63 2a3c cbb0 003b f535 85bb 9585 2bbd
000000a0: ddb9 3abd bca3 6bbd ba52 92bc 0cff e4ba
000000b0: 5acb 58b9 85af 243c b778 bc39 b8d0 a5bc
000000c0: 8721 31bd 89d1 89bd 1ab2 83bd 03f0 33bd
000000d0: b546 8dbc 0741 7abc 8baa de3b 50da bf3a
000000e0: 481d 33bb e648 a7bb ddb9 46bd 6cdd 65bd
000000f0: fdff e5bc 861a c93b 4120 96bc fe75 e83b
00000100: e87f 433a 2f02 48bc 9aeb 0b3c 5dfd a3bc
00000110: 6c8b bebc 7c6f eabc cee9 fbbb c2c3 713c
00000120: cfca db3c 14f8 a53b 7b51 c1bc 0b0b ff3a
00000130: 154c 52bc e25f 963c 58b9 143c 00ca 5539
00000140: 98ee ebbc eddb ec3c 942d edbc 9f5b ddbb
00000150: 58cb 65bd f844 4ebd 7d73 b0bc 4da2 36bc
00000160: 83d3 bbba aa45 6fbc 68d1 223d 2220 363d
00000170: 6a02 8fbd 63ad 673c 88d4 a0bd 3b05 74bd
00000180: a1b7 80bc 6b9f 06bc 9b60 42bc 6da4 15bd
00000190: 199a e52f d2d1 ca2e 537d b7af 445d 2730
000001a0: ca50 b7af 6863 1330 b371 7930 1e71 20b0
000001b0: 3420 5eb0 d2ab b62f ca77 0caf 0d51 2530
000001c0: ac34 4daf c747 852f ea7f a42f 7134 9b32
000001d0: 79cc bf30 8059 a830 e863 962f 35a2 872e
000001e0: a5c2 08b0 ba76 a6b0 559a 2b34 daaf 5ab3
000001f0: 2adb 7034 51ba d835 021c 4b36 0424 2835
00000200: 7e72 0f33 903b 44af 4e43 a2af 65d0 1f30
00000210: f672 4d34 7f9c 1034 ae6b 1835 f0fc 7034
00000220: 77fb 5035 4577 2535 96e5 d433 1f83 2030
00000230: f0d3 342f ce64 a52f b199 2d35 8f2b 7535
00000240: 907f cb35 6023 5935 82c6 af34 ed43 8a34
00000250: 0ee2 e834 4035 9faa c613 6faf 52f3 0bb0
00000260: c802 6b35 cf69 2834 1fb6 1835 1a72 8934
00000270: 3398 a034 c620 5e37 b071 0531 d866 0baf
00000280: e8b8 092f 53de b32f 6eaf b132 5c74 63b2
00000290: 8101 4433 5413 7e35 2527 6934 2240 8b36
000002a0: 1d6f a732 abc0 cfb0 c6f7 a4af a85a 5cb0
000002b0: a310 3b36 357e 4435 af29 5535 8dc7 d733
000002c0: c9ec c633 2215 2636 f740 0a34 8952 06af
000002d0: c04f 69af 2aa8 95ae 849c 0330 8fe4 4330
000002e0: 0436 7f30 24c5 6330 6a49 4530 546f 6eb0
000002f0: c5e0 b630 1e98 37ae 0ebf 93af 8d07 b4ae
00000300: b1d7 8eb0 32cb d4b0 3678 89af 4f91 7db0
00000310: 3238 4fb0 8c2e d22f 0e1f e42f a901 80af
00000320: e7a9 9908 4de7 8ba9 e86a 3b2c 9acc 61ac
00000330: 6d15 f8ad 1291 f1ab 7a1e 3f2c 450b 8eac
00000340: f48f e32a 673c d09d eb06 5a27 24f7 c2b2
00000350: 7ba3 2c34 dcb8 c131 e175 5732 db0d 3933
00000360: 7df2 8cb2 cb0a b1b2 c86e 9f31 f327 ac2a
00000370: a23a 182c acbc 1433 c30b d8b4 ea16 b7b4
00000380: 99cf 15b4 e3c4 8e34 bedd 27b4 d12c 4ab3
00000390: 2259 0e31 88a0 cc2c 7d6a 2b2c 3416 aeb4
000003a0: 59fc 75b5 d34a c3b3 8e80 6b35 cd5a b933
000003b0: 0651 3335 f3e8 86b4 0841 8133 5558 fc2c
000003c0: 7b51 10ad 8166 1cb3 58c5 dd34 0e75 beb3
000003d0: 3674 c032 e295 8d34 992d 4835 9fc6 f133
000003e0: f40b 3cb4 f9de ee2e f2fd b62a a1e8 3832
000003f0: cf2b 9534 2fa6 3335 a011 9934 bf60 f1b2

act_fc1.bias f4 [100]
-0.16862814 -0.12278463 0.17221041 0.0032747774 0.2256315 0.24319777 -0.02334876 0.16497007
-0.1632926 -0.14699082 -0.13733412 -0.16740032 0.032900322 -0.11618563 -0.09886208 -0.121727385
-0.07457216 0.04647144 -0.15737312 -0.14994754 0.11394929 0.045723923 -0.20384659 0.0024870934
-0.12781878 -0.14160134 0.04965908 -0.18679498 0.016118228 0.08314861 0.008579299 -0.11261112
0.015289933 -0.08734516 -0.052436627 -0.06923149 -0.04930975 0.06533084 -0.08701913 0.0042307996
0.2032321 -0.09036235 -0.15280771 -0.062763065 0.05375751 0.08915881 -0.09351184 -0.09382497
-0.14467366 0.21139628 0.21983756 -0.09086025 -0.120669276 -0.03696088 0.03868162 0.08743679
-0.056954935 -0.1542989 -0.1071841 0.19675821 0.032947984 -0.07166172 0.102487706 -0.08462946
-0.089478835 -0.08505873 -0.066789955 0.0642444 -0.11627245 0.026866615 0.17422128 0.027552145
-0.20746896 0.011571839 -0.108834125 -0.10566328 0.057167843 -0.18560268 0.050874244 0.12496867
-0.17302881 -0.118202396 0.02812341 -0.13184105 -0.08802735 -0.031333763 -0.072046295 0.050889067
-0.12854055 -0.1383933 -0.17536938 -0.18303303 0.12600592 -0.00057944853 0.2095616 0.18962996
0.010246195 0.13592714 -0.123755194 -0.17089978
00000000: dbac 2cbe 8276 fbbd ed57 303e a69d 563b
00000010: f20b 673e d608 793e e645 bfbc eaed 283e
00000020: 2d36 27be c384 16be 51a1 0cbe fd6a 2bbe
00000030: 7dc2 063d bbf2 edbd 3478 cabd 354c f9bd
00000040: 4ab9 98bd d658 3e3d 6b26 21be d98b 19be
00000050: 3f5e e93d 0249 3b3d 29bd 50be 81fe 223b
00000060: ede2 02be f1ff 10be 5267 4b3d 2f47 3fbe
00000070: 600a 843c d249 aa3d 3090 0c3c a9a0 e6bd
00000080: a182 7a3c 05e2 b2bd cac7 56bd 3dc9 8dbd
00000090: 05f9 49bd 2dcc 853d 1637 b2bd 85a2 8a3b
000000a0: 131c 503e e50f b9bd a079 1cbe ec89 80bd
000000b0: d630 5c3d e598 b63d 2383 bfbd 4e27 c0bd
000000c0: 5525 14be 4478 583e 191d 613e f014 babd
000000d0: 7421 f7bd 4b64 17bd 9e70 1e3d 0f12 b33d
000000e0: 9449 69bd 8800 1ebe 5683 dbbd fc7a 493e
000000f0: 77f4 063d 61c3 92bd 13e5 d13d 3652 adbd
00000100: ae40 b7bd 4533 aebd 2cc9 88bd 9192 833d
00000110: 4020 eebd 6017 dc3c 1067 323e 09b5 e13c
00000120: be72 54be d097 3d3c 6de4 debd fd65 d8bd
00000130: d428 6a3d a10e 3ebe 8361 503d 93ef ff3d
00000140: 772e 31be 1914 f2bd 1163 e63c 5701 07be
00000150: af47 b4bd d557 00bd 028d 93bd 0e71 503d
00000160: 22a0 03be f9b6 0dbe 0894 33be 036d 3bbe
00000170: b207 013e 22e6 17ba 5197 563e 5b2e 423e
00000180: a8df 273c 7c30 0b3e 5d73 fdbd 5a00 2fbe

val_conv1.weight f4 [2, 128, 1, 1]
0.09522405 0.13320217 0.07388291 0.10641676 0.1166072 0.009892751 0.11480758 0.09260847
-0.11276046 0.120279774 0.094122656 -0.01434476 -0.024257382 -0.081799164 0.11544872 0.07679432
-1.730329e-38 1.6015676e-38 -1.6253472e-38 0.044935636 -6.054089e-39 0.025293693 0.03974233 0.042895623
0.108416185 0.13152416 0.032774813 0.046253394 0.14281847 -0.0034051044 0.047611073 0.07961156
-0.084122635 -3.528591e-39 0.043811813 1.4493297e-38 0.017652307 0.012226705 0.068469346 -0.04508251
-0.077527896 0.04778446 -0.009105631 0.04601045 0.1679923 -0.099624604 0.0134439785 0.18558772
0.14349999 0.07887921 -0.122104645 -0.24508233 -0.0014009388 0.050689608 -0.044714853 0.096891776
0.11946258 -0.12053476 0.01861186 8.778436e-39 -0.16100092 0.097863935 0.08277477 0.17007607
1.4040062e-38 0.08913305 -0.004838444 0.007918178 0.05997416 0.09918025 -1.6600599e-38 0.013797378
0.0028575996 0.06936145 1.7052838e-38 0.12909369 5.435198e-39 0.16911685 -0.04244769 0.056596216
0.03665535 1.1414214e-38 0.03834828 0.0070584784 -0.030783752 0.0009113029 0.066865146 0.10948611
0.12477656 0.013735254 0.081123516 1.5752117e-12 -0.13617349 -0.08451612 -0.032608345 0.066763364
1.620725e-39 0.04266003 0.026235744 -0.0032592928 -0.019164952 0.1129592 0.108784005 0.08344678
0.030032795 0.09697569 -0.014298146 -1.3166111e-38 -0.060177103 4.609423e-39 0.019424627 0.057837415
3.21753e-39 0.01620055 -0.019776411 -0.09122631 0.10941572 0.085954726 0.025045699 0.022048526
0.0006094475 0.05811505 0.08065059 0.07686937 0.06330231 -0.030566903 0.10694892 2.813278e-39
0.043251406 -0.005561565 -0.051849924 0.0387291 0.020429278 0.18661459 0.07747591 0.11758087
-0.089559495 0.047447987 0.050271228 -0.029330786 -0.15996274 -0.09652729 0.051498238 0.03191962
3.171696e-39 3.8503838e-14 1.1073355e-21 -0.000121077406 4.916296e-39 0.039685532 0.06967594 -0.05437442
0.07140061 0.03990089 -0.0106997285 0.06278997 0.08243049 0.028195295 -0.011634799 0.03370911
-0.08331671 -2.1114762e-28 0.02725743 -0.00013324704 0.06860208 -0.028361205 0.16273403 -0.027577426
-0.07632507 -0.0054210243 0.025554683 -0.07302017 0.006404697 -0.10492846 0.03233923 0.04121015
0.06909376 0.043784454 -0.07307502 -0.09756624 -0.1150558 0.056379937 -0.0070934035 0.030301742
0.030125221 -0.11453011 -0.0026720802 2.6927576e-06 -0.17803586 0.00024534255 0.008377702 0.042732697
-0.004541507 0.01634352 -9.164842e-06 -0.033594854 0.029734021 0.07378045 -5.846412e-39 -0.014734553
-0.15297835 0.06739217 -4.04827e-39 0.15463524 9.8421396e-11 0.022853471 -0.009574765 0.03149075
0.075008705 4.1057275e-16 0.0050179316 -1.4125156e-33 -0.11471621 -0.069460995 -0.0469839 -0.018164936
0.15471974 -0.113008946 0.13814372 -0.011441224 -0.09485442 -0.09754064 -0.0052717724 0.013223193
1.466574e-38 0.056716323 -0.061970714 -0.094114326 0.032554504 0.14464004 0.07224423 -0.004419805
0.020512894 0.05463317 -0.015812952 1.0241229e-05 -0.047089983 -1.816048e-16 -0.22003563 0.09037158
-0.003081412 -0.04214275 0.03411291 -0.1040191 0.063467816 0.034048922 -0.0060267355 -0.0061203823
0.040605847 -0.07575697 0.13647464 0.046564225 0.05453977 -0.010292855 -0.0114902 -6.176009e-39
00000000: d404 c33d 2666 083e ec4f 973d 08f1 d93d
00000010: c1cf ee3d 3515 223c 3d20 eb3d 82a9 bd3d
00000020: f5ee e6bd 3e55 f63d 61c3 c03d 4906 6bbc
00000030: 6bb7 c6bc 5286 a7bd 6170 ec3d 5746 9d3d
00000040: 886a bc80 3065 ae00 11fc b080 6e0e 383d
00000050: 56ec 4180 b834 cf3c dac8 223d 52b3 2f3d
00000060: 4e09 de3d 45ae 063e e23e 063d 3374 3d3d
00000070: 013f 123e 2c28 5fbb d403 433d 630b a33d
00000080: 7d48 acbd 476c 2680 0474 333d 6ad1 9d00
00000090: 929b 903c 8552 483c a839 8c3d 70a8 38bd
000000a0: f2c6 9ebd a3b9 433d c92f 15bc 7475 3c3d
000000b0: 2c06 2c3e fc07 ccbd 2244 5c3c b50a 3e3e
000000c0: a9f1 123e 6c8b a13d 0012 fabd ddf6 7abe
000000d0: b59f b7ba e89f 4f3d ec26 37bd 326f c63d
000000e0: cca8 f43d eeda f6bd e677 983c b596 5f00
000000f0: 6ddd 24be e36c c83d d285 a93d 6c28 2e3e
00000100: fbe1 9800 638b b63d cf8b 9ebb 3fbb 013c
00000110: 77a7 753d 041f cb3d b7c3 b480 660e 623c
00000120: 9146 3b3b 600d 8e3d 60b0 b900 2331 043e
00000130: 1f2f 3b00 f82c 2d3e a1dd 2dbd 6fd1 673d
00000140: ec23 163d 2f4a 7c00 1613 1d3d cf4a e73b
00000150: 352e fcbc 81e4 6e3a 98f0 883d 413a e03d
00000160: da8a ff3d d509 613c 1624 a63d fcb0 dd2b
00000170: 1071 0bbe ca16 adbd 5490 05bd 3bbb 883d
00000180: eca5 1100 49bc 2e3d 58ec d63c dc99 55bb
00000190: d1ff 9cbc 2757 e73d 26ca de3d 25e6 aa3d
000001a0: 5607 f63c 319b c63d c542 6abc c35d 8f80
000001b0: 447c 76bd 3231 3200 6520 9f3c ede6 6c3d
000001c0: 2a09 2300 04b7 843c 2402 a2bc dcd4 babd
000001d0: 5915 e03d 0809 b03d a32c cd3c 1c9f b43c
000001e0: 54c3 1f3a 0c0a 6e3d 232c a53d b06d 9d3d
000001f0: a4a4 813d 7167 fabc 0908 db3d 46a2 1e00
00000200: 6328 313d ca3d b6bb 9660 54bd 68a2 1e3d
00000210: 4d5b a73c e517 3f3e b1ab 9e3d 3dce f03d
00000220: f86a b7bd d258 423d 34e9 4d3d 1e47 f0bc
00000230: 46cd 23be 1ab0 c5bd d1ef 523d 26be 023d
00000240: 6689 2200 e767 2d29 f855 a71c f0ea fdb8
00000250: a288 3500 4c8d 223d 42b2 8e3d b6b7 5ebd
00000260: 7c3a 923d 1e6f 233d ea4d 2fbc 0798 803d
00000270: 51d1 a83d d2f9 e63c e29f 3ebc 9012 0a3d
00000280: f4a1 aabd a9d4 8591 f94a df3c 3bb8 0bb9
00000290: 3f7f 8c3d c255 e8bc c0a3 263e 0eea e1bc
000002a0: 5150 9cbd d9a2 b1bb 0e58 d13c 998b 95bd
000002b0: 7ede d13b bce4 d6bd 2476 043d f9cb 283d
000002c0: 0781 8d3d 5457 333d 5ba8 95bd cfd0 c7bd
000002d0: 60a2 ebbd a6ee 663d c86f e8bb 5c3b f83c
000002e0: 2bc9 f63c c38e eabd 111e 2fbb 39b5 3436
000002f0: 084f 36be 52a1 8039 a142 093c 7b08 2f3d
00000300: ecd0 94bb d8e2 853c b2c2 19b7 c29a 09bd
00000310: c394 f33c 341a 973d 6ba9 3f80 3269 71bc
00000320: 5ba6 1cbe e804 8a3d ee14 2c80 b358 1e3e
00000330: 526e d82e 3437 bb3c 7adf 1cbc 72fc 003d
00000340: 2a9e 993d d8ad ec25 766d a43b c5b1 ea88
00000350: 55f0 eabd 9141 8ebd 3172 40bd a2ce 94bc
00000360: da6e 1e3e 3c71 e7bd 8c75 0d3e f973 3bbc
00000370: 0943 c2bd 63c3 c7bd d5be acbb 17a6 583c
00000380: 1eb2 9f00 604f 683d 01d5 7dbd 03bf c0bd
00000390: df57 053d 851c 143e c8f4 933d 03d4 90bb
000003a0: a80a a83c 08c7 5f3d 2a8a 81bc bed1 2b37
000003b0: 6de1 40bd 4760 51a5 0551 61be bc14 b93d
000003c0: 84f1 49bb e09d 2cbd fbb9 0b3d f707 d5bd
000003d0: 6afb 813d e276 0b3d ec7b c5bb 7d8d c8bb
000003e0: 5152 263d 7826 9bbd 02c0 0b3e 21ba 3e3d
000003f0: 1865 5f3d 5da3 28bc 6441 3cbc 3340 4380

val_conv1.bias f4 [2]
-0.045516092 0.14320138
00000000: 156f 3abd 62a3 123e
