20210314/current_policy.model (torch, 594703 bytes, 15 tensors)

conv1.weight f4 [32, 4, 3, 3]
0	0x3d903fac	0.070433944
1	0x3e242948	0.16031373
2	0x3d8a90b3	0.067658804
3	0x3cfa0e2a	0.030524332
4	0x3e0931d8	0.1339792
5	0x3e744fab	0.23858516
6	0x3d84ac82	0.06478216
7	0xbd0b9364	-0.03407611
8	0x3d495d2c	0.04916112
9	0xbd78ee1a	-0.060773946
10	0xbd83861b	-0.06422063
11	0xbe3b0e77	-0.18267237
12	0xbd065ebe	-0.032805197
13	0x3e5abff0	0.21362281
14	0xbbedf404	-0.007261755
15	0x3db6990d	0.08915911
16	0xbde57e71	-0.112057574
17	0xbe297fb7	-0.16552626
18	0x3da98128	0.08276588
19	0x3e161cc3	0.14659409
20	0xbcf7cf5e	-0.030250248
21	0xbd0948d2	-0.033516712
22	0xbe5ed558	-0.21761072
23	0x3dd6146b	0.10453113
24	0x3e08827d	0.13331027
25	0x3dfdce11	0.1239282
26	0x3d3b42e9	0.045718107
27	0xbdb5467a	-0.08851333
28	0x3e28b4a6	0.16475162
29	0x3ccd3ce1	0.025053443
30	0xbdea8453	-0.1145102
31	0xbcc17c35	-0.023618797
32	0xbe0cbd3a	-0.13744059
33	0xbd404207	-0.04693797
34	0x3e03465c	0.12819809
35	0x3ccd6cf6	0.02507637
36	0xbda49e0c	-0.080379575
37	0x3db65ff4	0.0890502
38	0x3d15265d	0.03641354
39	0x3d42707c	0.047470555
40	0x3d156037	0.03646871
41	0xbc181cc8	-0.009284206
42	0xbdc1f20a	-0.094699934
43	0xbd337fcd	-0.043823052
44	0xbdcf1678	-0.101117074
45	0xbe4d6c2f	-0.200608
46	0x3d05ad70	0.032636106
47	0x3b97c079	0.004631099
48	0xbc5f47b0	-0.0136279315
49	0x3c92b648	0.017909184
50	0x3c0b1a37	0.008490137
51	0x3d45d2cd	0.04829674
52	0xbdab65de	-0.08369039
53	0xbe18b6e3	-0.14913516
54	0x3c44a5ac	0.01200239
55	0xbc960f0c	-0.018317722
56	0xbc25b09e	-0.01011291
57	0x3d8af945	0.06785826
58	0x3cfa7d0d	0.030577207
59	0x3db8f7a5	0.090316094
60	0x3d0419d3	0.03225119
61	0x3df79432	0.12088813
62	0x3db607f8	0.08888239
63	0x3ae556b8	0.0017497158
64	0xbdfc4f0c	-0.123197645
65	0x3dc5d74a	0.09660204
66	0xbe0865f0	-0.13320136
67	0x3e0ef0b8	0.13959014
68	0xbdd178a3	-0.10228088
69	0xbc4e3f50	-0.012588337
70	0xbe17e693	-0.14834051
71	0x3d803757	0.06260555
72	0xbc93a4da	-0.018022943
73	0x3c86fa89	0.016476886
74	0xbe309e29	-0.17247833
75	0xbdc1791a	-0.094469264
76	0x3ce9ba8f	0.02853134
77	0x3dd07b4a	0.101797655
78	0x3e0a4864	0.13504177
79	0x3d077209	0.033067737
80	0x3ca7a32c	0.020463549
81	0xbe723e77	-0.23656641
82	0xbe682bf8	-0.22673023
83	0xbe01db13	-0.12681226
84	0x3dcc7ea1	0.0998509
85	0xbe0c4c42	-0.13700965
86	0xbe48a646	-0.19594678
87	0xbdc8a01d	-0.09796164
88	0x3d00755b	0.03136192
89	0x3c34ba7c	0.011030789
90	0xbdac30cb	-0.08407744
91	0xbcdc3832	-0.026882265
92	0x3d325410	0.0435372
93	0x3d36c075	0.044617135
94	0x3e122fca	0.14276043
95	0x3dc65007	0.09683233
96	0x3e016ed9	0.12639941
97	0x3d79f732	0.06102676
98	0x3dea34ee	0.11435877
99	0x3d2987cf	0.041389283
100	0x3e093c3d	0.13401885
101	0xbdb994a2	-0.090615526
102	0xbd272750	-0.040808976
103	0x3dfd6884	0.123734504
104	0xbcd31722	-0.025767867
105	0x3e032592	0.128073
106	0x3c6394b5	0.013890435
107	0xbe0e6a07	-0.13907634
108	0xbdf8d0a7	-0.12149172
109	0x3e072833	0.13198929
110	0xbdff419e	-0.12463687
111	0xbe7cdf9f	-0.2469468
112	0x3d9e9586	0.07743363
113	0x3cfd3407	0.030908598
114	0xbde37c2b	-0.111076675
115	0x3d8a0b87	0.0674048
116	0xbcf0c80e	-0.029392269
117	0xbe2d845b	-0.16945021
118	0xbd29cbbf	-0.041454073
119	0xbe7b9aff	-0.24570845
120	0xbe3060fa	-0.17224494
121	0xbdd7293d	-0.105059125
122	0xbde01c61	-0.10942913
123	0xbdd039ff	-0.10167312
124	0x3d14faf7	0.03637215
125	0xbe740498	-0.23829877
126	0x3e1cb56d	0.15303583
127	0xbe011415	-0.12605317
128	0x3bd094dc	0.0063654017
129	0xbdaec7d4	-0.08534208
130	0xbd976ef6	-0.07394211
131	0xbd4422c0	-0.047884703
132	0x3d2c7d39	0.04211161
133	0xbd1aa69e	-0.037756555
134	0x3c83f118	0.016106173
135	0xbd43e404	-0.047824875
136	0xbdb82408	-0.089912474
137	0xbd5e1bce	-0.054225735
138	0x3bf8ca8c	0.007592505
139	0xbd0a9b6a	-0.03383962
140	0xbdc0e676	-0.09418957
141	0x3c6d0838	0.0144672915
142	0x3bca739f	0.006178334
143	0xbcb67271	-0.022271367
144	0xbad0b36d	-0.0015922614
145	0x3d6c29dc	0.057657108
146	0xbdc12c2a	-0.09432252
147	0xbcf21d38	-0.029554948
148	0xbe484088	-0.19555867
149	0x3b9e1d12	0.004825243
150	0xbe24b794	-0.16085654
151	0x3dd4afc6	0.103850886
152	0x3d9a8947	0.07545715
153	0x3d06a029	0.032867584
154	0xbe12ed75	-0.14348395
155	0xbdfe6b4d	-0.1242281
156	0xbe633c57	-0.22190987
157	0xbdafa237	-0.08575862
158	0x3d489df4	0.04897876
159	0x3d37e7b8	0.04489872
160	0xbe366414	-0.17811614
161	0x3cda8f75	0.026679734
162	0x3c1a0fab	0.00940315
163	0x3d08cacf	0.03339654
164	0xbc3eb9c0	-0.011640966
165	0xbde99f74	-0.114073664
166	0x3d7453b2	0.05965013
167	0xbdf1672c	-0.117872566
168	0xbccc10f4	-0.024910428
169	0xbce853b9	-0.028360235
170	0xbbbdc41a	-0.0057911994
171	0xbdfe1a40	-0.124073505
172	0x3e0445a4	0.12917191
173	0xbd26f5a8	-0.04076162
174	0x3cea8b69	0.028630929
175	0xbca6855d	-0.020327264
176	0x3e1840d3	0.14868478
177	0x3e0ccdc0	0.13750362
178	0xbd8a989d	-0.0676739
179	0xbe2a0b1e	-0.16605803
180	0xbe3de2a7	-0.18543492
181	0x3a84c783	0.001013026
182	0x3d5f9095	0.054581244
183	0xbe24d864	-0.16098171
184	0xbc5c264d	-0.013436866
185	0x3e459e72	0.19298723
186	0x3e317e3c	0.17333311
187	0x3e1412be	0.14460275
188	0x3d86e3d1	0.06586421
189	0xbe798ab9	-0.24369325
190	0x3ddfeedd	0.109342314
191	0xbc13fdb9	-0.00903266
192	0xbde84ca5	-0.11342744
193	0xbc0b80b5	-0.008514573
194	0x3d8ca909	0.068681784
195	0xbe2f4533	-0.17116241
196	0x3dd06a16	0.10176484
197	0x3df258a6	0.118333146
198	0x3d5951fa	0.053056695
199	0xbbcbcd1f	-0.0062195207
200	0x3e0eebe6	0.13957176
201	0x3db338b5	0.087510504
202	0x3d5a5c22	0.05331052
203	0x3db60ade	0.088887915
204	0x3d8e551a	0.069498256
205	0x3c348fec	0.011020642
206	0x3d9c7dc9	0.07641179
207	0x3da62e6f	0.08114325
208	0x3ddf7d3a	0.10912557
209	0x3c3f0e23	0.011661085
210	0x3e04b51f	0.12959717
211	0xbc0af3a6	-0.008480942
212	0x3d3e8c2b	0.046520393
213	0x3e25ede0	0.16204023
214	0xbe1f5c52	-0.15562561
215	0xbe1e6ffb	-0.15472405
216	0x3e2adaf5	0.16685088
217	0x3e24c090	0.16089082
218	0xbde0c01c	-0.10974142
219	0xbcbb84e4	-0.022890516
220	0xbdea941f	-0.11454033
221	0x3d6874f1	0.05675215
222	0xbcc9bfc1	-0.024627568
223	0xbd92b39f	-0.07163166
224	0x3d875ab9	0.06609101
225	0xbd8f0596	-0.06983487
226	0x3e02793b	0.12741558
227	0x3c0046e3	0.007829401
228	0xbbcf5c17	-0.0063281166
229	0xbe0ab665	-0.1354614
230	0xbd67c2e2	-0.05658234
231	0x3d85072f	0.06495511
232	0xbce2f47b	-0.027704468
233	0xbbcadc32	-0.0061908
234	0xbcffd6bf	-0.031230329
235	0xbe238654	-0.15969211
236	0x3d492e39	0.049116347
237	0x3deb0906	0.114763305
238	0x3db08b72	0.08620347
239	0x3a878c62	0.001034152
240	0xbd11defd	-0.03561305
241	0xbcf1803c	-0.029480092
242	0xbdf3e697	-0.11909216
243	0x3df6dd67	0.12053948
244	0x3e1aa1fd	0.15100856
245	0xbe1ee15b	-0.15515654
246	0x3debdd82	0.11516859
247	0x3e0991fc	0.13434595
248	0x3e2df09c	0.16986316
249	0xbd87429d	-0.06604502
250	0xbd8779bd	-0.066150166
251	0x3dde17fc	0.108444184
252	0xbce6f25e	-0.028191742
253	0xbd55a5a1	-0.05215991
254	0x3d95f4b8	0.07322067
255	0x3c696781	0.014245869

conv1.bias f4 [32]
0	0xbd5d1f4f	-0.053984936
1	0x3daf28bb	0.085526906
2	0x3d332c58	0.04374346
3	0x3dd086e3	0.101819776
4	0x3e1e7a51	0.15476348
5	0xbe15eab3	-0.14640312
6	0x3d38aa1c	0.045084104
7	0x3e0d81d4	0.13819057
8	0x3a80411d	0.000978503
9	0xbcb2c0d7	-0.021820469
10	0x3dbea64e	0.09309064
11	0x3d80bb9d	0.062857844
12	0xbc9056c8	-0.017619506
13	0x3e416790	0.18887162
14	0x3c8cc2c4	0.017182715
15	0x3bfa020c	0.0076296385
16	0x3e28f106	0.16498193
17	0xbdc4704e	-0.09591733
18	0xbe275fad	-0.16345091
19	0xbdc77cce	-0.097406015
20	0xbd97fd88	-0.07421404
21	0xbd69d0d0	-0.057083905
22	0xbc69f4c6	-0.01427955
23	0x3d8b7ae6	0.068105504
24	0xbcd1c142	-0.025604848
25	0xbcb61f89	-0.022231834
26	0x3d0af5aa	0.03392569
27	0xbe25346b	-0.16133277
28	0xbcdd6754	-0.02702681
29	0x3df4fae4	0.11961916
30	0x3dad5247	0.08462959
31	0xbbcfb2a3	-0.006338434

conv2.weight f4 [64, 32, 3, 3]
0	0xbd30c36a	-0.04315511
1	0xbd0c0ddc	-0.034192905
2	0xbc97fbd9	-0.018552708
3	0xbd4951c6	-0.04915025
4	0xbde7e7ed	-0.11323533
5	0xbd8f3628	-0.06992751
6	0xbdc1dcae	-0.094659194
7	0xbd5f6ea1	-0.054548863
8	0xbd140eeb	-0.03614704
9	0x3d1e532f	0.03865355
10	0x3ac968ee	0.0015366354
11	0x3d2ac26e	0.04168933
12	0x3d1578a5	0.03649201
13	0x3d1168db	0.03550039
14	0xbd394bae	-0.04523819
15	0x3cbea892	0.02327374
16	0x3c81baaa	0.015836079
17	0xbd474f10	-0.048659384
18	0x3ca42529	0.02003725
19	0x3ca8d986	0.020611536
20	0x3d1b5174	0.037919477
21	0x3d75d45c	0.060016975
22	0xbd3cf8b6	-0.046135627
23	0xbd42225d	-0.047396053
24	0x3d26e891	0.040749136
25	0xbc6d8055	-0.014495929
26	0x3cfc1af4	0.030774571
27	0xbd1ace0e	-0.037794165
28	0x3c618ace	0.013766004
29	0xbd3c28e9	-0.045937452
30	0xbd136c0c	-0.035991713
31	0xbd9d4ec0	-0.07681036
32	0xbd9dfed6	-0.07714622
33	0x3ce374cc	0.027765654
34	0xbd8ec624	-0.06971386
35	0xbd72b3ea	-0.05925361
36	0xbc184991	-0.009294883
37	0x3d3b9b86	0.045802616
38	0xbcc8f19c	-0.02452927
39	0x3d0a3b93	0.03374822
40	0xbc81ce60	-0.015845478
41	0xbd3ae767	-0.04563084
42	0xbd1830a9	-0.03715578
43	0x3c80f49a	0.015741635
44	0x3c9629e5	0.018330524
45	0x3cd87b0c	0.02642586
46	0x3d27bd5e	0.04095208
47	0x3d6caff4	0.05778499
48	0x3cdf8b7a	0.027288187
49	0x3d74c78e	0.059760623
50	0x3c173554	0.009229023
51	0xbce73303	-0.028222566
52	0x3d6201de	0.055177562
53	0x3c2f3902	0.010694744
54	0xbc83929c	-0.01606112
55	0x3caa8f82	0.020820383
56	0xbc881b62	-0.01661462
57	0x3ca74ca2	0.020422284
58	0x3c759daf	0.014991208
59	0x3d82e097	0.06390493
60	0xbd1fafb7	-0.038985934
61	0xbcb55f77	-0.022140248
62	0x3d5e99c4	0.05434586
63	0xbcbf135d	-0.023324663
64	0xbd3e18c3	-0.046410333
65	0xbd17987c	-0.037010655
66	0xbcc54361	-0.02407998
67	0xbdb2db02	-0.08733179
68	0x3bced401	0.006311894
69	0x3bf9dc99	0.0076251742
70	0xbc96faca	-0.018430132
71	0xbca69006	-0.020332348
72	0xbc39bda6	-0.01133672
73	0x3cdd542e	0.027017679
74	0x3c235d55	0.009970983
75	0x3d48a4e4	0.048985377
76	0x3d0b62b0	0.034029663
77	0x3b4b3f34	0.0031013014
78	0xbc8989db	-0.016789367
79	0x3d00a3d2	0.03140623
80	0xbc95d219	-0.018288659
81	0x3d64c07f	0.05584764
82	0x3d897db6	0.067134306
83	0xba98c90f	-0.00116566
84	0xbca6a185	-0.02034069
85	0x3d9995fa	0.07499309
86	0x3cfc92c4	0.030831702
87	0xbd3768c5	-0.04477765
88	0x3d1a938e	0.037738375
89	0xbc3fd670	-0.011708841
90	0xbd7b94a9	-0.06142107
91	0x3c1e84d8	0.009675227
92	0xbd6b33f7	-0.057422604
93	0xbc935226	-0.017983507
94	0xbd404bfe	-0.04694747
95	0x39c096f2	0.00036733557
96	0xbc9c7f63	-0.019103711
97	0xbc7d33dc	-0.015454259
98	0x3c827365	0.015924165
99	0x3d2d27ca	0.042274274
100	0xbd1fe009	-0.039032016
101	0xbce49739	-0.02790414
102	0x3bf138e7	0.0073615196
103	0x3d07afaf	0.03312653
104	0xbd0146cf	-0.03156167
105	0xbb1a67b1	-0.002356034
106	0xbd0615f2	-0.032735772
107	0xbc918532	-0.017763708
108	0xbcaeb304	-0.021325596
109	0x3b7da734	0.0038704397
110	0x3d2b3880	0.04180193
111	0x3d2c3e22	0.042051442
112	0xbc72f1b7	-0.014828137
113	0x3d3984d0	0.045292675
114	0xbcc8f6e3	-0.024531787
115	0x3c8b08d7	0.016971989
116	0xbd0b0d80	-0.03394842
117	0x3c032fc6	0.008006996
118	0xbd7539c4	-0.059869543
119	0xbd561ebe	-0.05227541
120	0xbd61ad8c	-0.055097148
121	0x3c9a2d6b	0.018820485
122	0x3c702b98	0.014658831
123	0xbc626956	-0.013819059
124	0xbd3f2995	-0.046670515
125	0xbd5b721d	-0.053575624
126	0x3d4d30ad	0.05009525
127	0x3dbdea1f	0.09273171
128	0x3c76bf5c	0.015060272
129	0x3d815cbf	0.06316518
130	0x3db0c69c	0.08631632
131	0x3c4e4cf0	0.0125915855
132	0x3d55d3ad	0.052203823
133	0x3dedcc32	0.11611213
134	0x3d4bdb50	0.0497697
135	0xbcd2acc8	-0.025717154
136	0xbd19317e	-0.037400715
137	0xbd36f1be	-0.044664137
138	0xbcd8cebf	-0.026465772
139	0xbd3bbb7b	-0.045833092
140	0xb9d51e29	-0.00040648997
141	0xbd564a4f	-0.05231696
142	0xbd4ec113	-0.0504771
143	0xbd711649	-0.058859143
144	0x3d26f634	0.04076214
145	0xbca18d83	-0.019720798
146	0xbd23c9d5	-0.039987404
147	0xbd556923	-0.05210222
148	0xbca210f7	-0.01978348
149	0xbbf8e475	-0.0075955936
150	0xbced5006	-0.028968822
151	0xbcaf85f6	-0.021426182
152	0xbd0213b6	-0.03175708
153	0xbd1f0d01	-0.03883076
154	0xbdc11c75	-0.09429256
155	0xbc9e29f8	-0.019307122
156	0xbde36a4c	-0.11104259
157	0xbd2fd094	-0.042923525
158	0xbd95f221	-0.07321573
159	0xbd690629	-0.05689064
160	0xbd1ec629	-0.0387632
161	0x3ca6fc2c	0.020383917
162	0x3cd19d8b	0.025587818
163	0x3cd96357	0.026536627
164	0xbbccd522	-0.0062509933
165	0xbc11bed9	-0.008895599
166	0xbd6cd5ff	-0.05782127
167	0xbd0d95f4	-0.034566835
168	0xbcb3226e	-0.021867003
169	0xbba8f06e	-0.0051556146
170	0xbd4be6ce	-0.04978066
171	0xbd2300c1	-0.03979564
172	0xbbfe47e5	-0.0077600353
173	0x3bbe8100	0.005813718
174	0xbb602775	-0.0034203206
175	0xbb35c6f1	-0.0027736987
176	0xbd1a1011	-0.03761298
177	0x3b14a9ae	0.0022684145
178	0xbca3f46f	-0.020014016
179	0xbbc3789b	-0.005965305
180	0x3d1e0b59	0.03858504
181	0x3d17f3dd	0.0370978
182	0x3d2166e7	0.039404776
183	0xbcd03f56	-0.025420826
184	0xbce7503d	-0.028236503
185	0xbb889695	-0.0041683414
186	0x3cd4a0ba	0.025955547
187	0x3d0d8d90	0.034558833
188	0x3d6b4e31	0.057447616
189	0xbdb96a1d	-0.090534426
190	0xbd179058	-0.03700289
191	0x3bf878ce	0.0075827604
192	0xbc9b4d1f	-0.018957673
193	0xbd326323	-0.043551575
194	0xba379ab0	-0.0007003946
195	0xbd1b64cb	-0.03793792
196	0x3d18635c	0.03720413
197	0x3ca04530	0.019564241
198	0x3a35e8c8	0.0006939289
199	0xbd92ca9b	-0.0716755
200	0x3d1dee1b	0.038557153
201	0xbd80d687	-0.06290918
202	0xbd71a11b	-0.058991533
203	0xbd7084bd	-0.05872034
204	0xbd86b968	-0.06578332
205	0xbca5e6fa	-0.02025174
206	0x3b042520	0.002016373
207	0x3d66547b	0.05623291
208	0x3ca39098	0.019966409
209	0xbc4984b6	-0.012299707
210	0xbc00606d	-0.00783549
211	0x3d732e6d	0.059370447
212	0x3d75b5f3	0.059987973
213	0xbcaa25c5	-0.020769963
214	0xbce358a5	-0.02775223
215	0x3d5c544b	0.053791326
216	0x3c6a170c	0.014287721
217	0x3d25170f	0.040305194
218	0xbcaec3e7	-0.021333648
219	0xbbb38152	-0.0054780627
220	0x39540fc0	0.00020223763
221	0x3acd5254	0.0015664794
222	0x3d55ecb0	0.052227676
223	0xbd59d704	-0.05318357
224	0xbc83de1b	-0.01609712
225	0xbcc99688	-0.024607912
226	0xbbda54f3	-0.006662959
227	0xbc704a97	-0.014666221
228	0x3cf88b50	0.030339867
229	0x3d7fb768	0.06243077
230	0x3c24206e	0.010017497
231	0x3c313982	0.010816934
232	0x3d2a6765	0.04160251
233	0xba70991e	-0.00091780897
234	0xb8942b5e	-7.065268e-05
235	0xbd0c89ab	-0.034310978
236	0xbd67caee	-0.056590013
237	0x3cc2e1e9	0.023789363
238	0xbd442b36	-0.04789277
239	0x3c642bc6	0.013926452
240	0xbd389781	-0.04506636
241	0xbc331bac	-0.01093189
242	0xbd834e83	-0.06411459
243	0xba244eeb	-0.0006267863
244	0x3a994b67	0.0011695445
245	0x3beb6ddc	0.007184727
246	0x3c468f10	0.01211907
247	0x3bee62f9	0.007274982
248	0x3bf0bdc1	0.007346839
249	0xbc9392a1	-0.018014254
250	0x3b62b839	0.0034594669
251	0x3bda9958	0.006671112
252	0xbc5d6b1c	-0.013514306
253	0xbd449d9e	-0.048001878
254	0xbd634cce	-0.05549317
255	0x3cab4412	0.020906482

conv2.bias f4 [64]
0	0x3ccedc5f	0.025251566
1	0xbd5ca4a2	-0.053867944
2	0xbd52b154	-0.051438645
3	0xbd0965a2	-0.03354419
4	0x3d8b4390	0.06799996
5	0xbd6c0539	-0.05762217
6	0x3c8f0a79	0.017461048
7	0x3da28a27	0.07936507
8	0x3cd8283a	0.026386369
9	0xbc2e8802	-0.010652544
10	0x3bea5f3c	0.007152466
11	0xbb888838	-0.004166629
12	0x3cd4f5cd	0.025996113
13	0xbb69569f	-0.0035604609
14	0x3dcee137	0.1010155
15	0xbc8d1733	-0.017222976
16	0x3cd9a76e	0.026569095
17	0xbb388b00	-0.0028159022
18	0x3a76625a	0.0009398811
19	0x3d26dd8f	0.04073864
20	0x3d1ce6ac	0.038305923
21	0x3948b950	0.0001914252
22	0x3c86aefe	0.016440865
23	0xbd1066cf	-0.035254296
24	0xbd186c3f	-0.037212607
25	0x3d0851a5	0.033280987
26	0xbd0d6b56	-0.03452619
27	0x3d0f19fa	0.034936883
28	0x3c41d021	0.011829407
29	0x3dce01b4	0.100589186
30	0x3da320b8	0.07965225
31	0x3ce78f49	0.028266566
32	0xbc10aff9	-0.008831018
33	0x3ca99add	0.020703727
34	0x3d0a3e30	0.033750713
35	0xbb34bac8	-0.002757715
36	0x3c3f42ff	0.011673688
37	0x3d2b4e71	0.041822854
38	0x3c4fbfa5	0.012679969
39	0xbd16d54a	-0.036824502
40	0x3ce2127c	0.027596705
41	0x3da4125e	0.08011316
42	0xbd85edf2	-0.06539525
43	0x3d3f1c4f	0.046657857
44	0x3d7dbb43	0.061946165
45	0x3d0dbe3d	0.034605253
46	0x3d513959	0.05108008
47	0x3cb44682	0.022006277
48	0xbd3f0112	-0.04663188
49	0x3d53e34a	0.05173043
50	0xbc9fffc5	-0.01953114
51	0xbc09385b	-0.008375253
52	0x3d973a7e	0.073842034
53	0x3cdc2610	0.026873618
54	0xbd3b887b	-0.045784455
55	0xbc0e24fc	-0.00867581
56	0x3d27fe3d	0.041013945
57	0xbce78d9a	-0.028265763
58	0xbd81d6c6	-0.06339793
59	0x3b29c599	0.002590513
60	0x3d776ecf	0.06040841
61	0x3d4e6886	0.05039265
62	0x3dbba70f	0.09162723
63	0xbbc2db8e	-0.005946583

conv3.weight f4 [128, 64, 3, 3]
0	0xbc95a82c	-0.018268667
1	0x3c7b6d3b	0.015345867
2	0xbb846adb	-0.0040410585
3	0x3c2fa451	0.010720328
4	0x3d294569	0.04132596
5	0x3d26b9a9	0.040704403
6	0xbc68f43d	-0.014218387
7	0x3c65594a	0.013998339
8	0xbce9b8f6	-0.028530579
9	0x3b6f622a	0.0036527016
10	0xbcb2b7d0	-0.021816164
11	0xbcaefadd	-0.021359855
12	0xbcd6b47d	-0.02620911
13	0x3ce5aa59	0.02803533
14	0xbd028259	-0.03186259
15	0xbc8ea1d6	-0.017411154
16	0xbba9c4d2	-0.0051809335
17	0x3ba678a4	0.0050802995
18	0x3c66be59	0.014083468
19	0x3cad83c0	0.021180987
20	0xbb63096d	-0.003464307
21	0x3d0fae50	0.035078347
22	0xbb152444	-0.0022757212
23	0x3caf2ef6	0.021384697
24	0x3ad913e9	0.001656172
25	0x3a874c06	0.0010322339
26	0xbc1b14e2	-0.009465428
27	0x3c6ee43e	0.014580784
28	0xbcc19edb	-0.023635319
29	0x3bc7ead2	0.006100991
30	0x3b9afc8d	0.0047298134
31	0xbbbe6e0a	-0.0058114575
32	0xbcb49ba3	-0.02204687
33	0x3cfca90a	0.030842323
34	0xbd02220b	-0.031770747
35	0x3cbb7425	0.02288253
36	0xbc16290d	-0.009165061
37	0xbce10da7	-0.02747233
38	0xbd4af6b3	-0.049551677
39	0xbc682933	-0.014169979
40	0xbc4d51dd	-0.012531725
41	0xbb8dd563	-0.004328416
42	0xbc9c68bd	-0.019092912
43	0xbcb71a5b	-0.022351434
44	0x3bbfe6f2	0.0058563882
45	0xb9bcc0d7	-0.0003600183
46	0x3a970133	0.0011520743
47	0x34775adb	2.303672e-07
48	0xbbd739fe	-0.0065681925
49	0x3b9a4d64	0.0047089327
50	0x3b11eb1e	0.0022265385
51	0xba80b422	-0.0009819309
52	0x3bc82970	0.0061084554
53	0xba23efcd	-0.00062536896
54	0x3ce31ffb	0.02772521
55	0xbce74a13	-0.028233564
56	0x3ba871fb	0.0051405407
57	0xbcd7b5d2	-0.026331816
58	0xba4d09d6	-0.0007821595
59	0x3cdb74b9	0.026789056
60	0x3cb73640	0.022364736
61	0x3c42bc87	0.011885769
62	0x3cb36494	0.021898545
63	0xbceaea3c	-0.028676145
64	0xbd4455b4	-0.047933295
65	0xbd0cc087	-0.034363296
66	0x3c2d2a9b	0.01056924
67	0x3acc594e	0.001559058
68	0x3c41861c	0.011811759
69	0xbc290226	-0.010315454
70	0x3b847446	0.004042181
71	0xbd4667d2	-0.048438855
72	0x3d477ff7	0.04870602
73	0x3bf64a5d	0.007516189
74	0xbcd253e0	-0.02567476
75	0x3ca487a5	0.020084212
76	0x3d0c2c51	0.03422195
77	0xbb6a5c3c	-0.0035760542
78	0x3d3a66ed	0.045508314
79	0x3c433d75	0.011916508
80	0x3b546d09	0.0032413623
81	0x3c10a83a	0.008829171
82	0x3cb8539d	0.022500807
83	0xbca04d1f	-0.019568024
84	0xbd09b358	-0.0336183
85	0xbbceeb95	-0.0063147047
86	0xbd0a7d96	-0.033811174
87	0x3c87de3f	0.016585467
88	0xbcf26d4f	-0.029593138
89	0xbc23f1d1	-0.010006384
90	0xbc0c1f8b	-0.008552442
91	0xbcc9f430	-0.02465257
92	0x3cba5b08	0.022748485
93	0xbcb1827e	-0.021668669
94	0xbcb126a1	-0.021624865
95	0xbbc03d15	-0.0058666565
96	0x3d1f9660	0.03896177
97	0x3c7798ca	0.015112111
98	0x3c68fca9	0.014220395
99	0x3cabc5eb	0.020968398
100	0xbcce100c	-0.025154136
101	0x3c4ab2af	0.012371703
102	0xbbad86e5	-0.0052956217
103	0xbd210976	-0.039315663
104	0x3d0a47b7	0.0337598
105	0xbc8384b1	-0.016054483
106	0xba97a8ac	-0.0011570654
107	0x3b01addc	0.0019787466
108	0x3c790924	0.015199933
109	0x3c513d36	0.0127709415
110	0x3a90e707	0.001105518
111	0x3c78b752	0.015180426
112	0xbcbbd86f	-0.022930352
113	0x3cf7e087	0.03025843
114	0x3c75e64f	0.015008523
115	0xbc4afdae	-0.0123895835
116	0xbcc0d854	-0.023540653
117	0xbba36bbd	-0.0049872086
118	0xbb921ec3	-0.0044592335
119	0x3be3dac5	0.0069535696
120	0xbb7764b4	-0.0037749233
121	0xbc5deaf3	-0.013544786
122	0x3c25a642	0.01011044
123	0xbca467c4	-0.02006901
124	0xbcc01754	-0.023448624
125	0xbbad7ac5	-0.0052941763
126	0xbcd96332	-0.026536558
127	0xbd4c1dc0	-0.04983306
128	0xbcc2acd0	-0.023764044
129	0xbcceabd9	-0.025228428
130	0xbd13ed25	-0.03611483
131	0xbd30e09f	-0.043182965
132	0xbc36f795	-0.011167427
133	0xbd1e3207	-0.03862193
134	0xbc98dfb1	-0.018661352
135	0xbcdda2c0	-0.027055144
136	0xbd0b8598	-0.03406295
137	0xbc773031	-0.015087173
138	0xbd139e3a	-0.03603957
139	0x3cd41431	0.025888534
140	0xbce61073	-0.028084015
141	0xbaad731a	-0.0013233155
142	0x3c63b61d	0.0138984
143	0x3c32d384	0.010914687
144	0xbcd74f8b	-0.026283046
145	0xbc4b290a	-0.012399921
146	0x3cfcf6f0	0.030879468
147	0xbc8b4b18	-0.01700358
148	0x3cb27e64	0.021788783
149	0x3c457c39	0.012053543
150	0x3d0c0f73	0.03419442
151	0x3c4703d5	0.01214691
152	0x3ce6724d	0.028130675
153	0xbd3130db	-0.043259483
154	0xbc5409a2	-0.01294175
155	0xbd2eae32	-0.042646594
156	0xbb60fdf1	-0.0034331048
157	0x3c3e0ec7	0.011600203
158	0xbd812377	-0.063055925
159	0xbd8a5428	-0.06754333
160	0xbd39bb2d	-0.04534452
161	0xbd24fe0c	-0.04028134
162	0x3b8e76b8	0.0043476485
163	0xbc945bd1	-0.018110188
164	0x3d08e888	0.033424884
165	0x3c91e4a6	0.017809223
166	0x3cee26f9	0.029071318
167	0x3c8d9812	0.017284427
168	0xbcbe9432	-0.023264024
169	0x3bbaff16	0.005706678
170	0x3d0ea5d5	0.03482612
171	0xbc9b9abb	-0.01899468
172	0xbd1f6309	-0.038912807
173	0xbd350712	-0.044196196
174	0xbc84aaae	-0.016194668
175	0xbd2f1714	-0.04274662
176	0x3ba9d9b2	0.005183422
177	0xbd22dfbd	-0.039764155
178	0xbcc5c5ee	-0.024142232
179	0xbd24a434	-0.04019566
180	0x3ae95e4e	0.0017804594
181	0xbd18d333	-0.03731079
182	0xbc95f600	-0.018305779
183	0xbcd74b74	-0.026281096
184	0xbbe4b4a2	-0.006979541
185	0xbbb4b252	-0.0055144215
186	0xbd05e024	-0.03268446
187	0xba571d72	-0.0008205987
188	0xbca1ffd2	-0.019775305
189	0xbc511c3a	-0.012763077
190	0xbc8a28a5	-0.016865084
191	0xbc0e07ae	-0.008668823
192	0xbcd2c2d1	-0.025727661
193	0xbcd28aea	-0.025701005
194	0xbc47d1b5	-0.012195994
195	0x3bae9ba8	0.0053286143
196	0xbc807938	-0.015682802
197	0xbcb63ba2	-0.022245232
198	0xbcc9babc	-0.024625175
199	0x3be8e0f0	0.0071068928
200	0xbb9ae27a	-0.004726705
201	0x3c519350	0.01279147
202	0x3cb519dc	0.022107057
203	0x3cc32150	0.023819596
204	0x3c2c3cb2	0.010512518
205	0xbc582271	-0.013191805
206	0x3c5430b5	0.012951066
207	0x3c532918	0.0128882155
208	0xbcb9c0f3	-0.022675013
209	0xbb4e1085	-0.0031442952
210	0x3cab2646	0.020892274
211	0x3ae10773	0.0017168358
212	0xbd084a37	-0.0332739
213	0xbcc0b78a	-0.023525018
214	0x3c1b96d4	0.009496409
215	0xbc912601	-0.017718317
216	0xbca9b797	-0.020717425
217	0x3d43eaa9	0.04783121
218	0x3d23e885	0.04001667
219	0x3c17d49c	0.009266999
220	0x3d14a192	0.036286898
221	0xbc77a960	-0.015116066
222	0x38fefd58	0.00012158853
223	0xbcb1f98a	-0.021725435
224	0x3ce4f9a4	0.02795107
225	0x3c86199a	0.01636963
226	0xbc33c373	-0.010971892
227	0xbbcb0ab3	-0.006196344
228	0x3cdf10ba	0.027229656
229	0x3c76452c	0.01503114
230	0x3cf00274	0.029298045
231	0x3c1985c7	0.009370274
232	0xb7468c10	-1.18343305e-05
233	0x3d29dfde	0.041473262
234	0xbccc3145	-0.024925837
235	0x3ba93bb0	0.005164586
236	0x39849d13	0.0002529403
237	0xbca9eead	-0.020743692
238	0x3a49be61	0.000769591
239	0xbc6e301e	-0.014537839
240	0xbc45cf6c	-0.012073379
241	0xbadae5d4	-0.0016700574
242	0xbc96553d	-0.018351192
243	0xbaa51ba9	-0.0012596744
244	0x3bcc61a5	0.006237226
245	0xbd46f01a	-0.048568822
246	0x3c5c937e	0.013462899
247	0xbd12ea6d	-0.035868097
248	0xbd64ac54	-0.055828407
249	0xbc888d28	-0.016668871
250	0xb9df77c4	-0.00042623107
251	0xbcccc7b0	-0.024997562
252	0xbb53effe	-0.0032339091
253	0x3b8f4023	0.0043716594
254	0xbccebb9e	-0.025235947
255	0xbc0a4256	-0.008438667

conv3.bias f4 [128]
0	0xbce46867	-0.027881814
1	0xbc173198	-0.009228133
2	0x3cab3343	0.020898467
3	0xbd24b78f	-0.040214118
4	0xbd2f046f	-0.042728838
5	0x3e1f3d31	0.15550686
6	0xbd0ad171	-0.033891145
7	0x3da62dc9	0.081142016
8	0x3d3461a7	0.04403844
9	0x3bb42736	0.0054978384
10	0xbbd9a3ee	-0.0066418564
11	0x3c875e38	0.01652442
12	0x3d724f10	0.05915743
13	0x3d84ac71	0.06478203
14	0x3d2555f6	0.040365182
15	0xbd3b0318	-0.045657247
16	0xbb2f95cb	-0.0026792164
17	0xbc43087a	-0.011903876
18	0xbccc3057	-0.024925394
19	0xbc9c3de2	-0.019072477
20	0xbb15a2a2	-0.0022832532
21	0xbcb1b5e3	-0.021693176
22	0xbcbd98e4	-0.023144193
23	0x3d91f320	0.071264505
24	0xbcb12cc9	-0.0216278
25	0x3c68470a	0.014177093
26	0x3d9c8ab9	0.07643647
27	0x3c61d070	0.0137826055
28	0x3d4f96e0	0.050680995
29	0xbd03532c	-0.03206174
30	0x3b93f52a	0.00451531
31	0xbc480050	-0.012207106
32	0x3de4b6ee	0.111677036
33	0xbc565c4f	-0.0130835315
34	0x3c8a26a5	0.01686413
35	0xbcc4fcdb	-0.024046352
36	0xbc5ed454	-0.013600428
37	0xbc218df6	-0.009860506
38	0x3d0dead0	0.034647763
39	0x3bf5310f	0.007482655
40	0x3dd54044	0.10412648
41	0x3d1bd140	0.038041353
42	0xbbcd8eec	-0.006273141
43	0x3c55dd7f	0.013053297
44	0xbc765232	-0.015034245
45	0x3d1e2319	0.03860769
46	0xba9cf334	-0.0011974336
47	0x3d1396b6	0.0360324
48	0x3d300f8c	0.042983577
49	0xbb8a740c	-0.0042252596
50	0x3da2f514	0.07956901
51	0x3cf8448e	0.030306127
52	0x3cf39ea0	0.029738724
53	0xbd046cdb	-0.032330375
54	0xbcc3fd38	-0.023924455
55	0x3c77e733	0.015130806
56	0x3d870019	0.065918155
57	0x3d1a5094	0.0376745
58	0xbc859e93	-0.016310966
59	0xbb9964d1	-0.0046812077
60	0x3db7643b	0.08954664
61	0x3ce024a3	0.02736122
62	0x3d50bd3a	0.05096171
63	0x3d7f398b	0.062310737
64	0xbd148596	-0.03626021
65	0xbb8ae004	-0.0042381305
66	0xbc22c838	-0.009935431
67	0xbb4b7938	-0.0031047594
68	0x3c0d32c5	0.008618061
69	0x3d0cc21d	0.03436481
70	0xbb765b35	-0.0037590985
71	0xbb7531bd	-0.003741368
72	0x3da5a09d	0.08087275
73	0xbca3aec9	-0.019980805
74	0xbc405cb2	-0.01174085
75	0xb9133521	-0.00014038805
76	0xbd191386	-0.037372135
77	0xbbbc005c	-0.0057373475
78	0x3c883418	0.016626403
79	0x3c3b1d60	0.011420578
80	0xbc193b3e	-0.009352503
81	0xbc80602d	-0.01567086
82	0xbcfc42b4	-0.030793525
83	0xbd42e13f	-0.047578093
84	0x3d8eb402	0.069679275
85	0x3d3cabd0	0.04606229
86	0x3ca16d1f	0.019705353
87	0x3d16a1da	0.036775447
88	0x3ca5759b	0.02019768
89	0x3d8df50b	0.06931504
90	0x3b6d4cca	0.00362091
91	0xbd0bcb91	-0.034129683
92	0xbd28d769	-0.041221056
93	0x3d8ebff4	0.06970206
94	0xbd1411fd	-0.036149967
95	0x3c264fd7	0.010150871
96	0xbc05f6f1	-0.008176551
97	0xbcbb0d08	-0.022833362
98	0x3ddcab69	0.107748814
99	0x3dc47d48	0.09594208
100	0xbd873080	-0.066010475
101	0xba4c64e8	-0.00077970186
102	0x3bdce857	0.0067415643
103	0xbd47a0db	-0.048737388
104	0x3c2bb3d6	0.010479888
105	0x3da4c370	0.08045089
106	0xbb35f1c4	-0.0027762512
107	0xbb914b59	-0.004434031
108	0x3da420b9	0.08014054
109	0xbcbcaf32	-0.023032758
110	0xbbe58bdb	-0.0070051975
111	0x3c32ace0	0.010905474
112	0xbc3f580c	-0.011678707
113	0x3dfb9992	0.122851506
114	0x3c55dd62	0.01305327
115	0x3d8dfa42	0.069324985
116	0x3cef912a	0.029244024
117	0xbce4d805	-0.027935037
118	0x3d363d8e	0.044492297
119	0x3de7f3e9	0.11325819
120	0xbd991474	-0.07474604
121	0x3c7e8cd1	0.015536503
122	0x3d0e27e5	0.034706015
123	0xbcaee923	-0.021351403
124	0xbcef71c4	-0.029229052
125	0xbd533ddb	-0.05157266
126	0x3d8f65b6	0.07001822
127	0xba639a49	-0.0008682353

act_conv1.weight f4 [4, 128, 1, 1]
0	0xbcacac7d	-0.021078343
1	0xbc3bbdc2	-0.011458816
2	0x3396d40d	7.023491e-08
3	0xbc1560e0	-0.009117335
4	0xb4bda8b4	-3.532674e-07
5	0x3d6f24ef	0.058384832
6	0xbd2ac4bc	-0.041691527
7	0xbca701d1	-0.020386608
8	0x3d21b810	0.039482176
9	0x3cbc773d	0.023006076
10	0xbca7747b	-0.020441284
11	0x3cac1c36	0.021009546
12	0x3d748a27	0.059702065
13	0x3d4ccf8b	0.050002616
14	0x3d85e0c7	0.065370135
15	0xbbb0a3a2	-0.0053906003
16	0xb3326b39	-4.1541373e-08
17	0x33dc0d2c	1.0246944e-07
18	0x3265dd00	1.3379804e-08
19	0x33be8ee7	8.873558e-08
20	0x30090140	4.9842086e-10
21	0xbd0d9312	-0.034564085
22	0xbd17901b	-0.037002664
23	0x3d4d7392	0.050159045
24	0xbb997286	-0.0046828417
25	0x3cd2d305	0.025735388
26	0x3d57be23	0.052671563
27	0xbd1a9873	-0.037743043
28	0x3d1768df	0.036965247
29	0xbc03b30a	-0.008038292
30	0x3ca0ca77	0.019627793
31	0x3c4540e7	0.0120394
32	0x3da729a1	0.08162237
33	0x34e33791	4.2322475e-07
34	0xbcc9ae7c	-0.024619333
35	0xb20139b4	-7.521908e-09
36	0xbd10710a	-0.035264052
37	0xb89f4602	-7.594751e-05
38	0xbdec11c3	-0.11526825
39	0xbc67dbe8	-0.014151551
40	0x3d4498a9	0.04799715
41	0x3ce6b2ca	0.028161425
42	0xbcda7023	-0.0266648
43	0x3d9c3ed5	0.07629172
44	0xbcb681c6	-0.022278678
45	0x3d6da35d	0.058017123
46	0x3d1e1819	0.0385972
47	0x3c674e76	0.014117828
48	0xbd55c0fe	-0.052186005
49	0xbd2002e0	-0.03906524
50	0x3d2a444a	0.04156903
51	0x3d1d7f70	0.038451612
52	0xbd589a05	-0.05288126
53	0xbcab20c3	-0.020889645
54	0xb1907d74	-4.205214e-09
55	0xbd1dd591	-0.03853375
56	0x3d517dd1	0.05114538
57	0x3d44138b	0.0478702
58	0x394d5d19	0.00019585005
59	0x34980b77	2.8320548e-07
60	0x3d8464c7	0.06464534
61	0xbcbe8eb9	-0.023261415
62	0x3cd1caa9	0.025609331
63	0x3c2f1b47	0.010687656
64	0xb528e15a	-6.2912807e-07
65	0x3b88b4e6	0.0041719554
66	0x34509319	1.9425023e-07
67	0x3c06f3a3	0.008236798
68	0xbc36e3e5	-0.011162733
69	0xbd86d718	-0.065839946
70	0x34238363	1.5228356e-07
71	0xb403c896	-1.2273298e-07
72	0x3d628381	0.055301193
73	0xbd19a06e	-0.037506513
74	0x331c969a	3.645855e-08
75	0xbd3a0748	-0.0454171
76	0xb482439f	-2.4263588e-07
77	0xbc7382e9	-0.014862754
78	0xbd391bbd	-0.04519247
79	0x3c2c4594	0.010514636
80	0xbd13851b	-0.03601561
81	0x33b5ef6e	8.472021e-08
82	0x3c03f1de	0.008053271
83	0xb50d87f7	-5.272445e-07
84	0x3d623619	0.055227373
85	0xbb1c37d8	-0.0023836996
86	0x3d007be8	0.031368166
87	0x3d3da648	0.046301156
88	0xbd4af092	-0.049545832
89	0x3d60d09c	0.054886445
90	0xbd8c6815	-0.068557896
91	0xb3f6dbcc	-1.14952485e-07
92	0x3c56823d	0.013092575
93	0x3d563c76	0.052303754
94	0xb30e2876	-3.309875e-08
95	0x3c1b6929	0.009485521
96	0x32f54f97	2.8557947e-08
97	0xbcafbe89	-0.021453159
98	0x3d577c2d	0.052608658
99	0x3d4c7ff0	0.0499267
100	0x3740a9c4	1.1483618e-05
101	0xbd57682c	-0.05258958
102	0xbd3a9022	-0.045547612
103	0x3bb40745	0.0054940307
104	0x3c1109d9	0.0088524455
105	0x3d6ae612	0.05734832
106	0x339ae213	7.2123065e-08
107	0x33846dd3	6.166706e-08
108	0x3d436533	0.047703933
109	0x3356b195	4.9987268e-08
110	0xb58fbacc	-1.0708695e-06
111	0x3cd2c9d4	0.025731005
112	0xb5686564	-8.657428e-07
113	0x3d4d8cf9	0.05018327
114	0xbd31cd52	-0.0434087
115	0x3d76da45	0.06026675
116	0xbd012f7f	-0.031539436
117	0x3c679ada	0.014136041
118	0x3d65775c	0.056022033
119	0x3d3baa7e	0.04581689
120	0xbbe54cb8	-0.006997671
121	0x387a9b11	5.974906e-05
122	0xbd815aaa	-0.06316121
123	0x3c37729f	0.011196761
124	0xbd00c770	-0.0314402
125	0x334589e5	4.599305e-08
126	0x3d122442	0.03567911
127	0x34cdf315	3.836109e-07
128	0x3d819734	0.06327668
129	0xb4be6c07	-3.5468858e-07
130	0x344b546f	1.8936565e-07
131	0xbb81f780	-0.003966272
132	0xbbaba361	-0.005237982
133	0xb2b4dd5d	-2.1055422e-08
134	0x3d70171f	0.0586158
135	0xbc4cf6c2	-0.0125100035
136	0xb3847d3c	-6.169509e-08
137	0xbc25372b	-0.010083954
138	0x3d5e418a	0.05426172
139	0xb3ea2fbd	-1.0905158e-07
140	0x3a826cd1	0.0009950643
141	0xb641eaa9	-2.8895831e-06
142	0xbd87d967	-0.06633263
143	0xbcc79b67	-0.024366094
144	0x339d07ed	7.312324e-08
145	0xb52838d9	-6.26676e-07
146	0xb409abea	-1.2821661e-07
147	0xbd169be0	-0.036769748
148	0x340f574c	1.3349671e-07
149	0x3ccf932d	0.025338734
150	0x3d45810f	0.048218783
151	0xbc8ff67a	-0.017573584
152	0x3b7b2edb	0.0038327489
153	0xbd25caee	-0.040476732
154	0x3413b697	1.3756868e-07
155	0xbb668f4c	-0.0035180626
156	0xbc534284	-0.0128942765
157	0xbbfa093a	-0.0076304944
158	0x344764d6	1.8570003e-07
159	0x3c26df06	0.010185009
160	0xb4953057	-2.7788585e-07
161	0x301715d4	5.49645e-10
162	0x3cc1d2b9	0.02366005
163	0xb39f1967	-7.408635e-08
164	0xbd84b228	-0.06479293
165	0x3218f8fd	8.904178e-09
166	0x3c00597d	0.007833836
167	0x334052b5	4.4778705e-08
168	0x3477bee4	2.3073113e-07
169	0x3c05d183	0.008167627
170	0xbd808fb6	-0.06277411
171	0xbd9a8fac	-0.075469345
172	0x3cd9f6c6	0.026606929
173	0xb49c1d00	-2.9078365e-07
174	0xbc4fe53f	-0.012688934
175	0x3d01bfed	0.031677175
176	0xbd2e13b9	-0.042499278
177	0xbdb3d409	-0.08780677
178	0xb12b8cde	-2.4963849e-09
179	0xb454c205	-1.9814622e-07
180	0xb3c09252	-8.967312e-08
181	0xbc621a09	-0.013800153
182	0x3a00ec47	0.00049180206
183	0xbd53e1e1	-0.051729087
184	0x3c7c78f7	0.0154097
185	0x2f989756	2.775617e-10
186	0x3be5c391	0.0070118387
187	0x3287c9f3	1.5807904e-08
188	0x33074392	3.149359e-08
189	0xbbd3a822	-0.006459252
190	0x3d7b1c13	0.06130607
191	0x3cdef01c	0.027214102
192	0xb4ac77f1	-3.2124765e-07
193	0xb4cfe885	-3.8725935e-07
194	0xb215b2b3	-8.713573e-09
195	0x340d2407	1.3144755e-07
196	0xbc9e135b	-0.019296339
197	0xbdb1d603	-0.086833976
198	0xb4e1107c	-4.192151e-07
199	0xbcefe889	-0.029285686
200	0x36c910b4	5.9922113e-06
201	0x3d730bc4	0.059337392
202	0x3406f27a	1.2567935e-07
203	0x3c357eae	0.011077566
204	0xb4250afb	-1.5370817e-07
205	0xbc4ae050	-0.012382582
206	0xb35e7cd0	-5.180192e-08
207	0xbd283eda	-0.041075565
208	0xbda97812	-0.08274855
209	0xb317de4a	-3.5359598e-08
210	0x3d41e715	0.047339518
211	0xbd0ebd41	-0.034848455
212	0xbb57878e	-0.0032887193
213	0x3d41ce9d	0.047316182
214	0xbc317a97	-0.01083245
215	0x3c2c4a0d	0.010515702
216	0xbbeff240	-0.0073225796
217	0x3cff12bb	0.031136861
218	0xbc45cb4a	-0.012072394
219	0xb3fc50d2	-1.17493656e-07
220	0x33a8a22b	7.852608e-08
221	0x35205830	5.9732974e-07
222	0x378ba5c4	1.6647282e-05
223	0x3d76e14a	0.060273446
224	0x34f90cc1	4.6389144e-07
225	0xbd806c34	-0.06270638
226	0xbc9e8ca9	-0.019354181
227	0xb37571c4	-5.7146977e-08
228	0xbd66b728	-0.056327015
229	0xbd5ae67d	-0.053442467
230	0x3c9dbbfb	0.019254675
231	0x3579bf05	9.30377e-07
232	0xbdba8e46	-0.09109168
233	0xbd2a3c7c	-0.04156159
234	0xb5ecbc37	-1.7638148e-06
235	0x33805f75	5.977828e-08
236	0x34050d65	1.2391463e-07
237	0xb292b03a	-1.7076776e-08
238	0xbcc15108	-0.023598209
239	0xb4da91e1	-4.0711805e-07
240	0xb492b67f	-2.7327403e-07
241	0xbc81e14b	-0.015854498
242	0xbc5e0da0	-0.013553053
243	0xb5ca8c19	-1.5090947e-06
244	0x3d3243b9	0.043521617
245	0x3bbde397	0.005794953
246	0xbd84ec33	-0.06490364
247	0xb2431215	-1.1354605e-08
248	0xbc60f4a7	-0.013730205
249	0xbcfb35ab	-0.03066524
250	0xbd9fdaf9	-0.078054376
251	0x3ceb3eee	0.02871653
252	0xbd994d0f	-0.07485401
253	0x33cb33c9	9.462344e-08
254	0xb884e2b5	-6.336478e-05
255	0x34ea5a3c	4.365155e-07

act_conv1.bias f4 [4]
0	0x3d475623	0.04866613
1	0xbdbd17f7	-0.092330866
2	0xbd56eadb	-0.05247007
3	0x3d6b585e	0.05745732

act_fc1.weight f4 [100, 400]
0	0xbd1c0192	-0.038087435
1	0xba7d8489	-0.00096709334
2	0x3bc3f289	0.00597984
3	0xbca90fdd	-0.020637447
4	0xbd213b21	-0.03936303
5	0xbd20f62d	-0.03929727
6	0xbc80eb4f	-0.015737204
7	0xbadf5534	-0.0017038942
8	0xbc8ec00c	-0.01742556
9	0xbd7c1a42	-0.06154848
10	0xbc7bf96c	-0.015379291
11	0x3c1b4609	0.009477147
12	0xbca3a036	-0.019973855
13	0xbd1753bc	-0.03694509
14	0xbd292175	-0.041291673
15	0xbd19c757	-0.03754362
16	0xbc47d9a8	-0.012197889
17	0x3984969f	0.00025289223
18	0xbbf2d25c	-0.0074103307
19	0xbd063ff3	-0.03277583
20	0xbbc5e95d	-0.006039782
21	0xbc858236	-0.016297441
22	0xbd241e4b	-0.040067952
23	0xbd1df0da	-0.038559772
24	0xbce9e6d7	-0.028552456
25	0xbbb047a8	-0.005379636
26	0x3cb5b5da	0.02218144
27	0x3bb57dcc	0.005538678
28	0x3bba7732	0.0056904787
29	0x3bf0e006	0.0073509244
30	0xbc80ac0f	-0.015707044
31	0xbccd76c3	-0.025081044
32	0xbd21531a	-0.039385892
33	0x3c80d8c3	0.01572836
34	0x3d605859	0.054771755
35	0x3d96cda9	0.07363445
36	0x3d8882b2	0.06665553
37	0x3c9bbd4c	0.019011162
38	0x38c841c6	9.5489944e-05
39	0x3c831946	0.016003262
40	0xbcb98907	-0.022648348
41	0xbcf5c32d	-0.030000294
42	0xbcc62146	-0.024185788
43	0x3d5b8ac0	0.05359912
44	0x3dc35965	0.09538535
45	0x3dd314ea	0.103067234
46	0x3da2b112	0.0794393
47	0xb99b63ed	-0.00029638354
48	0xbcf10fd5	-0.029426495
49	0xbc1546e5	-0.009111141
50	0xbce7b76b	-0.028285703
51	0xbcd16310	-0.025559932
52	0xbcd214db	-0.02564471
53	0x3d5b4fb6	0.053542815
54	0x3dbc71c6	0.09201388
55	0x3db6d4ad	0.089272834
56	0x3d4772c3	0.04869343
57	0xbd1011ac	-0.035173103
58	0xbd49ed7a	-0.04929874
59	0xbc6bf93b	-0.014402683
60	0xbc67d54c	-0.014149975
61	0xbc8f8381	-0.01751876
62	0xbc3f088f	-0.011659755
63	0x3d1a0ffe	0.037612908
64	0x3d5bf0d4	0.05369647
65	0x3d1b3726	0.03789439
66	0x3bed2990	0.0072376207
67	0xbd1fdef7	-0.039030995
68	0xbcff52e4	-0.031167455
69	0x3be8beba	0.0071028145
70	0xbbe4690a	-0.0069705294
71	0xbb8ed582	-0.004358948
72	0xbc1e8aa3	-0.009676608
73	0x3c15d71e	0.009145526
74	0xbc344735	-0.011003305
75	0xbd026ee9	-0.031844053
76	0xbd05e429	-0.032688294
77	0xbcd2a773	-0.025714612
78	0xbc0b3a0b	-0.008497725
79	0x3c69163f	0.014226495
80	0x3c7d2887	0.015451557
81	0x3c86bf3d	0.016448611
82	0xbc33a62d	-0.010964912
83	0xbc847747	-0.016170157
84	0xbce585ec	-0.02801796
85	0xbd14cac1	-0.036326174
86	0xbce90d81	-0.028448822
87	0xbc02a718	-0.007974409
88	0x3c27f69f	0.01025167
89	0xbc133d27	-0.008986748
90	0x3c890a62	0.016728584
91	0x3c27ac8d	0.01023401
92	0xbbb288db	-0.0054484433
93	0xbb63a244	-0.003473417
94	0xbc7a32a0	-0.015270859
95	0xbcc3eb2c	-0.02391585
96	0xbc46d4a1	-0.012135656
97	0x3a8351f0	0.0010018926
98	0xbc5c6469	-0.013451674
99	0xbd287b00	-0.041132927
100	0xb152d7ac	-3.0681617e-09
101	0x345c60bd	2.052429e-07
102	0xb4191f79	-1.4260685e-07
103	0xb54dcfba	-7.6670733e-07
104	0x353ea7aa	7.10245e-07
105	0x34c19930	3.606051e-07
106	0x35091a40	5.1074676e-07
107	0x34f27ffa	4.5169128e-07
108	0x33ef2ccd	1.1137454e-07
109	0xb35d8dd1	-5.1584554e-08
110	0x325f5799	1.3000226e-08
111	0x3611d3c7	2.1729954e-06
112	0x36a3532e	4.867462e-06
113	0x36467c6d	2.9576725e-06
114	0xb2c1e6df	-2.2573145e-08
115	0xb9c961c0	-0.00038410537
116	0x398ef865	0.0002726942
117	0x38a5db17	7.908622e-05
118	0x36e61819	6.8573395e-06
119	0xb6a1c765	-4.8213865e-06
120	0x33126a78	3.4090107e-08
121	0x3633f11e	2.6813427e-06
122	0x379ea74f	1.8912977e-05
123	0xbaaa63d4	-0.0012999722
124	0x3a9de6f3	0.0012046978
125	0xba8cf07a	-0.001075282
126	0x3a4226fa	0.00074063207
127	0x394139e1	0.00018427476
128	0xba00436f	-0.0004892861
129	0x38f5728a	0.00011703845
130	0x32b45d33	2.099714e-08
131	0x3699d0ff	4.5840857e-06
132	0xbad8adc8	-0.0016531283
133	0xb81acf62	-3.69096e-05
134	0x39a17956	0.00030798715
135	0xba500d23	-0.0007936528
136	0x3ade5eeb	0.0016965544
137	0x3793cabc	1.7618171e-05
138	0x3a33b505	0.0006855282
139	0xb9c904c9	-0.00038341273
140	0x325f7496	1.3006817e-08
141	0x360a17ce	2.0577459e-06
142	0x3ae61269	0.0017553094
143	0xb8e7bebe	-0.00011050467
144	0xbad2a7c4	-0.0016071727
145	0xbb138fa5	-0.0022516039
146	0x3b09e762	0.0021042456
147	0x3abd04ba	0.0014420964
148	0x39ff703e	0.00048721017
149	0x398c55cf	0.00026766813
150	0xb315b20b	-3.4853695e-08
151	0x3661dc27	3.3655758e-06
152	0x382c9596	4.114731e-05
153	0x39181d35	0.0001450673
154	0x3af0da1e	0.0018375551
155	0x3a9fd8a2	0.0012195299
156	0xb9b4a0ae	-0.0003445199
157	0x3b02c765	0.0019955274
158	0xb7ef02f3	-2.8492394e-05
159	0x399eba49	0.00030274902
160	0x33d5f987	9.963974e-08
161	0x37c6c6d1	2.369602e-05
162	0x38b2adc2	8.520066e-05
163	0xba3a7553	-0.00071128196
164	0x3a5f2da7	0.00085135776
165	0xb98ee0f5	-0.00027251957
166	0x38a4431c	7.8326295e-05
167	0x389fced6	7.620237e-05
168	0xb8b23ec7	-8.4993946e-05
169	0xb97e6dc0	-0.00024264213
170	0xb309ecd9	-3.211321e-08
171	0x34f304c5	4.5265747e-07
172	0x3acf6845	0.0015823921
173	0xb81d7402	-3.7539758e-05
174	0xba34d494	-0.00068981317
175	0x384f6be9	4.9453145e-05
176	0xb9df30bb	-0.00042570182
177	0x3ad311ff	0.0016103386
178	0x3a7e4a83	0.0009700434
179	0x3904350e	0.00012608265
180	0x340439a9	1.2314435e-07
181	0x359416cf	1.1033497e-06
182	0xb91f269e	-0.00015177808
183	0x39902cae	0.0002749911
184	0xb84977c2	-4.8033668e-05
185	0x391ebe1a	0.00015138873
186	0x382a5644	4.06115e-05
187	0x38d61c50	0.00010209589
188	0x385d05a3	5.2695756e-05
189	0xb8157b31	-3.56391e-05
190	0x33eafbf3	1.09423034e-07
191	0xb4684d16	-2.1634727e-07
192	0x3408c2e7	1.2736892e-07
193	0x33dce9de	1.02870885e-07
194	0xb3971c80	-7.0366696e-08
195	0x341c5c0b	1.4562117e-07
196	0xb394a8f8	-6.922522e-08
197	0x33757002	5.7145378e-08
198	0x33f5af04	1.1440537e-07
199	0x340e0966	1.32282e-07
200	0x393cf90d	0.00018021856
201	0xbb18452b	-0.0023234587
202	0x3ad37e21	0.0016135612
203	0xba5e81f9	-0.00084879954
204	0xbbd3e4ca	-0.0064664828
205	0xb9e329c3	-0.0004332793
206	0x3a10c85e	0.0005523021
207	0xbaa5cdb5	-0.0012649806
208	0x3ba95d47	0.00516859
209	0xba5052e7	-0.0007946924
210	0x39ecfce4	0.00045201846
211	0xbc0082bb	-0.007843669
212	0x3c439aac	0.011938732
213	0x39bb7f40	0.00035762228
214	0x3a427e96	0.00074193755
215	0x3b217d37	0.0024641284
216	0xba786b15	-0.00094764057
217	0xba9de8c9	-0.0012047525
218	0x3ac2460b	0.00148219
219	0x399e7318	0.0003022186
220	0x3b02d5b5	0.0019963805
221	0x3af9c6fd	0.0019056496
222	0xbbd940cc	-0.006630039
223	0xbb9c93ab	-0.0047783456
224	0xbb06864b	-0.0020526822
225	0x3b7505a4	0.0037387395
226	0xbb0202cc	-0.0019838093
227	0xba1c7264	-0.0005967973
228	0x391ca547	0.0001493889
229	0x3a1ab4fb	0.0005901602
230	0x3a4ca6e9	0.0007806854
231	0xbc4472f6	-0.011990299
232	0xbc3c00a1	-0.011474759
233	0xba6e7c10	-0.0009097466
234	0x3c19420b	0.009354125
235	0x3a75fc52	0.0009383607
236	0x3bdcf41a	0.0067429664
237	0xbb2e2d04	-0.0026577124
238	0x3b4a692e	0.0030885446
239	0x39f0cd41	0.00045929293
240	0xbb3535ee	-0.0027650553
241	0xbab315c2	-0.00136631
242	0x3b9eda52	0.004847803
243	0xba64f676	-0.00087342353
244	0x39780cb2	0.00023655852
245	0x3b37516a	0.002797211
246	0x3c008dbf	0.007846295
247	0x3aaa354a	0.0012985852
248	0xbc1ca64d	-0.009561134
249	0x3bcb739e	0.006208851
250	0x38e0052f	0.00010682118
251	0x39d41335	0.000404501
252	0x3b5b5037	0.003346456
253	0x3bd57a8b	0.0065148524
254	0x3b3cd1e8	0.0028811637
255	0xb99cb71f	-0.00029891075

act_fc1.bias f4 [100]
0	0xbe688193	-0.22705679
1	0xbe055d47	-0.13023864
2	0x3e4f231b	0.20228235
3	0x3caee4ad	0.021349275
4	0x3e3ed8c0	0.18637371
5	0x3e5dfd1c	0.21678585
6	0xbc5ecc89	-0.01359857
7	0x3e50545a	0.20344678
8	0xbe4c180f	-0.19931053
9	0xbe409462	-0.18806604
10	0xbe220465	-0.15821989
11	0xbe798a45	-0.24369152
12	0x3c40dfb5	0.011772086
13	0xbe212f10	-0.15740609
14	0xbd94b831	-0.07261694
15	0xbdc0933b	-0.09403082
16	0xbdbe9d97	-0.093074016
17	0x3c6a57e3	0.01430318
18	0xbe615c77	-0.22007929
19	0xbe2f71eb	-0.171333
20	0x3e0e343c	0.13887113
21	0x3d0c241f	0.034214135
22	0xbe4b9b1d	-0.1988339
23	0xbc62abea	-0.013834933
24	0xbe42348b	-0.18965356
25	0xbe551d3f	-0.20811938
26	0x3d13e7dc	0.03610979
27	0xbe353a24	-0.1769796
28	0x3a007ea6	0.00049016846
29	0x3dd13024	0.1021426
30	0x3d55ba7e	0.052179806
31	0xbe29046a	-0.1650559
32	0x3c5a85b5	0.013337542
33	0xbdefd9cd	-0.11711464
34	0xbd823701	-0.063581474
35	0xbdc1dda4	-0.09466103
36	0xbd9a7cd7	-0.075433426
37	0x3d74a45c	0.059727058
38	0xbe0005b4	-0.12502176
39	0x3ccc35b0	0.024927944
40	0x3e3d2b56	0.18473563
41	0xbd769942	-0.06020475
42	0xbe5761ea	-0.21033445
43	0xbda64b58	-0.081198394
44	0x3c21be15	0.009871979
45	0x3d036d4c	0.032086655
46	0xbdc7cbd9	-0.09755678
47	0xbe12b2f5	-0.14326079
48	0xbded9196	-0.11600034
49	0x3e3b4e58	0.18291605
50	0x3e4b4ece	0.1985428
51	0xbd835d2b	-0.06414255
52	0xbe373673	-0.17891864
53	0xbd997e87	-0.07494836
54	0xbcf33725	-0.02968938
55	0x3d216e15	0.039411623
56	0xbd63415b	-0.05548225
57	0xbe5c88cb	-0.21536557
58	0xbd9734db	-0.07383128
59	0x3e3bdf6a	0.18346944
60	0x3d789433	0.06068821
61	0xbde5dcda	-0.11223765
62	0x3dc44db1	0.09585131
63	0xbde71c79	-0.112847276
64	0xbdec05b4	-0.11524525
65	0xbdeb5f96	-0.11492841
66	0xbdb0ef88	-0.08639437
67	0x3d7e1dac	0.062040016
68	0xbe2f656c	-0.17128533
69	0x3d23654d	0.03989153
70	0x3e51a3a7	0.20472585
71	0x3c1c09d8	0.009523831
72	0xbe469842	-0.19394019
73	0xbac1f258	-0.0014796956
74	0xbe1a08bf	-0.15042399
75	0xbe1cba94	-0.15305549
76	0x3d5974fb	0.053090077
77	0xbe2ba268	-0.16761172
78	0x3d426e69	0.047468577
79	0x3e225c24	0.15855461
80	0xbe60bfa9	-0.21948113
81	0xbe1bbf63	-0.15209727
82	0x3c1ccdd2	0.009570556
83	0xbe3ad9d3	-0.18247156
84	0xbd5bc044	-0.053650156
85	0x3933e5d6	0.00017156391
86	0xbdccbfca	-0.09997518
87	0x3d173ef3	0.036925267
88	0xbe272bac	-0.16325253
89	0xbe261999	-0.16220702
90	0xbe6e6f07	-0.23284541
91	0xbe5b8b99	-0.21439971
92	0x3e1c5c60	0.15269613
93	0x3cebf5cb	0.028803727
94	0x3e387069	0.18011631
95	0x3e2de8ef	0.16983388
96	0x3d4068c3	0.04697491
97	0x3e3363d2	0.17518547
98	0xbe07cb85	-0.1326123
99	0xbe6b346f	-0.2296922
