20210314/current_policy.model (torch, 594703 bytes, 15 tensors)

conv1.weight f4 [32, 4, 3, 3]
000000 07 28 d4 3d 77 d5 79 3e f2 14 00 3e 49 ea 0d 3d
       0.10359197 0.24397837 0.1250799 0.03464726
000010 77 75 6b 3e 4c a4 b1 3e b7 bd 7a 3d 0b 15 2d bb
       0.22994028 0.3469566 0.061216082 -0.0026410248
000020 f1 b3 e9 3d 48 05 56 bd d6 66 11 be 67 b0 69 be
       0.11411274 -0.05225113 -0.14199385 -0.22821198
000030 6e f5 1e be f1 60 3e 3e 10 4d dd bd a0 16 02 3e
       -0.15523311 0.18591668 -0.10805714 0.12703943
000040 2e ca 7c be 47 04 86 be b8 c4 40 bb f0 2c b4 3d
       -0.246865 -0.26175138 -0.0029414129 0.08797634
000050 70 1b 55 bd 28 12 9b bd b2 03 02 be 7e 70 94 3b
       -0.05202812 -0.075718224 -0.12696722 0.0045300117
000060 41 7d 91 3d 69 a2 9b 3d f9 3b 24 3d ac b5 c1 bd
       0.071039684 0.07599337 0.040096257 -0.09458479
000070 b8 a2 1f 3e 78 bf 84 3c d3 24 0b be 25 92 3c bd
       0.15589416 0.01620458 -0.13588266 -0.04603781
000080 f8 59 20 be 28 72 72 bd 89 f5 e9 3d a9 30 4b 3c
       -0.1565932 -0.0591909 0.11423785 0.012401738
000090 f5 63 25 be ee eb 9d 3e 6a b3 1a 3e 22 30 9b bd
       -0.16151412 0.30844063 0.15107504 -0.0757754
0000a0 9a 71 63 be aa dc 49 bc d5 0f b9 bd 5f 38 17 3e
       -0.22211304 -0.012320677 -0.09036223 0.14767598
0000b0 67 20 34 bc 36 9b a1 be d2 91 4e bd e3 a3 90 bd
       -0.010994053 -0.3156373 -0.050432034 -0.07062509
0000c0 82 df c3 3d 92 8e 2e 3e 62 14 dd 3d bc 80 d0 bd
       0.09564115 0.17046574 0.10794903 -0.10180804
0000d0 f3 f5 1b be 6a 99 5e be 19 04 30 bd 0f 7a 90 bd
       -0.15230541 -0.2173821 -0.042972658 -0.07054531
0000e0 09 b9 ed bd b7 a4 1c 3e ee 89 0c 3e ac bf d5 3d
       -0.11607558 0.15297209 0.13724491 0.10436949
0000f0 57 9c a1 bd 14 7c 16 3e f6 fe 01 3d b1 ce fb 3c
       -0.078911476 0.1469577 0.03173729 0.030738207
000100 bf 5d d9 bd f2 eb 01 3e c7 91 c3 bd 4a 0e 23 3e
       -0.10613584 0.12687662 -0.09549289 0.1592342
000110 34 70 8a bd 12 b2 3b 3b 9d 69 1e be 49 2c 8d 3d
       -0.06759682 0.0028640074 -0.15469976 0.06893212
000120 66 15 f5 3d 86 3d 2d 3c 41 38 88 be 9c 2e a1 be
       0.11966972 0.01057375 -0.26605418 -0.31480873
000130 26 4f c8 bc 92 ac 43 3e c4 82 31 3e 16 2d a1 3d
       -0.024451803 0.19108799 0.1733504 0.078699276
000140 65 45 99 3c 01 ba 9c be 22 80 55 be a7 a5 92 be
       0.018709848 -0.3061066 -0.2084966 -0.28642008
000150 15 67 ab 3e 08 89 c3 3c c0 ed 06 bd 24 31 07 be
       0.33477083 0.023869053 -0.03294158 -0.1320234
000160 88 2b 11 3d 75 d5 c6 bd e6 0b 5d bd 95 42 e7 bc
       0.035441905 -0.097086824 -0.053966425 -0.028229991
000170 9a 84 40 3c 75 33 1f 3e 08 0d 22 3e a1 a8 31 3e
       0.011750365 0.15546973 0.15825284 0.17349483
000180 04 98 60 3d d9 c9 c3 3d 98 d7 7b 3d eb d5 ca 3c
       0.054832473 0.09559984 0.061484903 0.024760207
000190 9b e3 00 3e 44 bc d4 bd 0d f6 7a bd 98 f6 e0 3d
       0.12586825 -0.10387471 -0.06126981 0.10984534
0001a0 7f a3 3a bd e4 2a eb 3d bf 07 18 3c 7a 06 17 be
       -0.04556608 0.1148279 0.009279191 -0.14748564
0001b0 ee 34 0e be 21 8c 93 3e 83 c6 5b be a7 f8 f0 bd
       -0.13887379 0.28817847 -0.21462445 -0.11766177
0001c0 8c 09 b0 3d c1 74 0d 3e a1 b3 9b bd 75 a1 28 3e
       0.08595571 0.1381407 -0.07602621 0.16467841
0001d0 40 aa e4 3d 94 8f 23 be 66 8e da bd 0b d5 04 be
       0.11165285 -0.1597274 -0.106716916 -0.12971894
0001e0 3a 88 79 be 37 6d df bd 32 6c 0c 3d a5 aa 1d be
       -0.24368373 -0.10909503 0.03428287 -0.15397127
0001f0 e7 5a ad bc 32 ea b6 be f4 89 63 3e 87 41 65 be
       -0.02116151 -0.35725552 0.22220594 -0.22388278
000200 25 18 bb 3d d9 61 29 3d 87 58 5a 3d 77 6d 5b bc
       0.091354646 0.04135308 0.053307083 -0.013392798
000210 07 40 53 bc 47 06 e7 3b 4c 30 f6 3d cb 7b a1 bd
       -0.012893683 0.007050309 0.12020931 -0.0788494
000220 5d 5d cd bd 02 dc 97 3c 6c 49 16 3d 6a b0 4c bc
       -0.10027573 0.018537525 0.036691114 -0.012493232
000230 0e 3a 4c bd 46 76 34 3d 98 1a cb 3c 79 33 95 3c
       -0.049860053 0.044058107 0.024792954 0.01821302
000240 38 6d 35 3e 6d 38 53 3e 5b 75 85 be 5e c9 2f 3e
       0.17717445 0.20626993 -0.26066098 0.17166659
000250 a2 7a f7 be f1 f8 14 3e 8d 96 81 be b6 17 43 3e
       -0.4833575 0.14548089 -0.25310174 0.19052014
000260 3d 79 f6 3d 6b 1e 58 3d 18 46 dc bd 76 74 67 bc
       0.12034843 0.052763384 -0.10755557 -0.014126888
000270 1b 79 b8 be 10 d6 45 3d 5a 9e d2 bc f2 6b 1d 3e
       -0.36029896 0.04829985 -0.025710274 0.15373209
000280 d1 ce a7 be 8a e8 27 bd 1c 95 36 3b e9 b0 83 3d
       -0.32774976 -0.04099325 0.0027859872 0.06430227
000290 ae c5 3d bc ce d8 12 be a7 47 fc 3d 9c 8e a1 bd
       -0.011582775 -0.14340517 0.12318354 -0.07888529
0002a0 4a 81 0f 3d ee 1b ff bc 5c 5c 08 3d 82 43 ff bd
       0.03503541 -0.031141248 0.033291206 -0.12464048
0002b0 e4 7c 02 3e 07 e7 2e bd 66 c7 a0 3c 89 d7 ec bc
       0.12742954 -0.042700794 0.01962633 -0.028911369
0002c0 20 d2 02 3e c3 03 00 3e 3e 7e a4 bd 8e ba 3d be
       0.12775469 0.12501435 -0.08031891 -0.18528196
0002d0 66 e0 1c be 0b d4 2d bd db 79 67 3d f9 c3 13 be
       -0.15319976 -0.042438548 0.056512695 -0.14430226
0002e0 fb 7e 21 bd c8 1f 81 3e 74 35 8a 3e 01 6b 16 3d
       -0.03942774 0.2521956 0.26993906 0.03672314
0002f0 c1 0a 16 bc 82 91 91 be d9 2a 09 3e df 58 3b 3d
       -0.009157837 -0.28431326 0.13395251 0.04573905
000300 fe 3b b2 bd 5b 51 98 3d 7d 89 e7 3d a0 62 73 bd
       -0.08702849 0.07437392 0.11305521 -0.059420228
000310 aa c5 3e 3e 6b e4 dd 3d b0 88 30 3e f6 49 e0 bc
       0.1863009 0.10834583 0.17239642 -0.027379017
000320 32 d7 14 3e 4f 26 5e 3d 27 6b 6c 3d 66 58 73 bc
       0.14535215 0.054235753 0.057719376 -0.014852619
000330 55 5e be 3d 3f 23 8a bc 64 4e a8 3d 23 0c c8 3d
       0.09295336 -0.01686251 0.08218077 0.0976794
000340 69 64 e6 3d 4f 6d 53 3c 61 6f 16 3e 49 6c 57 bb
       0.112496205 0.012904479 0.14690925 -0.003287094
000350 e2 69 5f 3d 14 40 44 3e 96 db 11 be a4 98 1d be
       0.054544337 0.19165069 -0.14243922 -0.15390259
000360 57 0e 42 3e ee c7 80 3e 10 77 0f be c1 5e 52 3d
       0.18950783 0.25152534 -0.14010262 0.051359896
000370 cc 91 03 be 3c 4b e9 3d ba ee 5d bd 51 da 27 be
       -0.12848586 0.11391303 -0.054182746 -0.16391875
000380 67 ed c6 3d 74 75 b5 bd 7c ee 53 3e d6 75 3b b9
       0.0971325 -0.08860293 0.20696443 -0.00017877607
000390 c7 07 0d 3d b1 de 1e be 5a 8f 90 bb 7f 36 bf 3d
       0.034431245 -0.15514638 -0.00441162 0.09336566
0003a0 f0 15 56 bc 84 7e 3e bd 19 1b 2a 3b 53 45 e7 bd
       -0.013066754 -0.046507373 0.0025956093 -0.112925194
0003b0 99 4b da bc f1 66 c1 3d 6c 0e 9d bc 7f ce cb 3c
       -0.026647376 0.09443463 -0.019171916 0.024878738
0003c0 f5 83 8d bc 91 d7 a9 bd 5a f7 2d be 4f cc da 3d
       -0.017274836 -0.08293069 -0.16988888 0.106835
0003d0 f8 94 12 3e ad 42 32 be 84 d2 d3 3d c3 fc ff 3d
       0.1431464 -0.17408247 0.10342887 0.12499382
0003e0 de 05 1e 3e d7 dd b4 bd 9e 5d a9 bd 96 bb a1 3d
       0.15431926 -0.08831375 -0.08269809 0.07897107
0003f0 4d 3b bc 3d 04 7c e4 bd a6 7f 9f 3e 7d f6 ae bd
       0.09190998 -0.111564666 0.31152076 -0.08543108

conv1.bias f4 [32]
000000 d1 5d 59 bd 87 fc 67 3d 55 76 6d 3d a2 48 85 3d
       -0.053067986 0.056637313 0.05797418 0.06507994
000010 57 ab eb 3d f1 aa f6 bd 22 81 51 3d cc ff fa 3d
       0.1150729 -0.12044323 0.05114854 0.12255821
000020 04 96 1e 3d 2b 21 e9 3c 97 ec 19 3d 70 06 a6 3d
       0.038717285 0.028458199 0.037579145 0.081066966
000030 ab 7e 1a 3d 1a 15 27 3e 38 5e 78 bc ba 56 b5 bb
       0.037718456 0.16316643 -0.015159182 -0.0055340203
000040 8b 25 32 3e 25 5d d9 bd 50 c4 03 be fe 99 76 bd
       0.17397134 -0.10613469 -0.12867856 -0.060205452
000050 97 a0 af bd 88 a4 de bb 30 69 f1 3a 65 2d c2 3d
       -0.08575552 -0.006794516 0.0018418189 0.094813146
000060 4e 86 a9 bc e8 0d 47 3c 9c fb 1a 3d 86 35 ea bd
       -0.020693924 0.012149312 0.03783761 -0.1143599
000070 02 b6 5d bd 31 2c df 3d 27 90 ac 3d c8 90 1d bc
       -0.054128654 0.10897101 0.084259324 -0.009617038

conv2.weight f4 [64, 32, 3, 3]
000000 a8 da e1 bc c7 d5 e4 3a 05 ac 53 bd 20 79 53 bd
       -0.027570084 0.001745873 -0.051677722 -0.051629186
000010 50 c3 ea bc 90 bb 24 3d 95 00 19 bd db 9f 22 bd
       -0.028657585 0.040217936 -0.03735407 -0.03970323
000020 9d c7 57 bd db 70 ac 3d 1d 85 5a 3d 3d 76 f1 3a
       -0.0526806 0.08419963 0.053349603 0.0018422079
000030 60 aa 45 bc 07 16 a2 3d 78 86 dd bd a6 74 5d bc
       -0.012064546 0.07914358 -0.108166635 -0.013516581
000040 01 ac c0 3d b4 95 08 3d a1 82 d3 3c aa ee 8f 3a
       0.09407807 0.033345893 0.025819125 0.0010981162
000050 1b 32 64 3d 31 4e 6f 3d 44 ae 3c bd 2b 4d 9a bd
       0.055711847 0.05842418 -0.04606463 -0.0753425
000060 48 40 52 bc d0 91 c4 bd 75 03 e1 3c 18 f6 3a bd
       -0.012832709 -0.09598124 0.027467469 -0.04564485
000070 46 bd a7 3d f0 45 98 bd 81 82 f2 bd 0e 27 54 3b
       0.08190398 -0.074352145 -0.11841298 0.0032371911
000080 83 77 e4 bd 9b 73 46 bc d1 87 c4 bd 44 6e 8e bd
       -0.111556076 -0.012112523 -0.095962174 -0.06954625
000090 e4 59 44 bd 67 51 a6 3d f8 fc da bc 33 75 c8 3c
       -0.04793729 0.08120995 -0.026731953 0.024469947
0000a0 5b 59 84 bd bc e1 65 bd 0b bd ef bd 0f ac 88 bd
       -0.06462356 -0.05612348 -0.11705979 -0.066734426
0000b0 5f 49 a6 3c 8c b1 05 3d de dc 90 bb da c8 b6 3d
       0.020298658 0.032640025 -0.0044208607 0.08925028
0000c0 19 aa 60 3d bb 1d 26 3d 37 8c 28 3c 74 f3 00 bd
       0.054849718 0.040555697 0.010287336 -0.031482175
0000d0 b2 ad 45 bd 85 9b a9 bc b5 5d 29 bd ec 73 10 3d
       -0.048261352 -0.02070404 -0.04134913 0.0352668
0000e0 5f a9 90 bc cd ee 91 3c 42 bf 8a 3c 48 9b a7 3d
       -0.017658887 0.017814064 0.016936902 0.081839144
0000f0 c3 60 8b bd ed 15 1d bd ed 4f cc 3d b6 38 94 bd
       -0.06805565 -0.03835099 0.09976182 -0.07237379
000100 98 c2 14 be 7a 13 68 3c 88 92 07 bd 1e a3 94 bd
       -0.14527357 0.0141648 -0.033098727 -0.07257675
000110 28 7c 6e bd 0b 35 24 3d dd 1a e0 bc f7 21 a0 bc
       -0.058223873 0.04008965 -0.02735656 -0.019547446
000120 ad ec a2 b8 87 a9 54 3d 9f 5b 74 3c 28 9c e6 3c
       -7.768846e-05 0.051919486 0.014914422 0.028150633
000130 1e e9 69 3d 2d b5 44 3b d0 52 3d 3c 49 1c 85 3c
       0.057107083 0.0030015216 0.011555389 0.016248839
000140 9c 1b 6f bc e6 72 31 3d e1 c9 05 3e 73 a6 a8 3c
       -0.014593985 0.043322466 0.13065292 0.020587182
000150 c3 1c 61 3c 47 b9 ac 3d 9a c4 ed 3b cb 47 68 bd
       0.0137397675 0.08433776 0.0072561027 -0.056709092
000160 ff ee 10 3d a1 29 0f 3d e7 4d 43 bd 25 34 3f 3d
       0.035384174 0.03495181 -0.047681715 0.04668059
000170 cc 37 e7 bc 90 92 f8 3c 1f 6a eb bb e4 c8 5f 3d
       -0.028224848 0.030343324 -0.0071842815 0.054634944
000180 c5 25 09 3d 74 5d 82 3d e0 67 75 3d 9c f0 89 3d
       0.033483285 0.06365481 0.059913516 0.06735346
000190 6f ac 15 bd 5c 85 9a 3c 17 84 00 3d c0 64 57 3d
       -0.0365414 0.018862419 0.03137597 0.052586317
0001a0 b9 0a 66 3d 2b f9 46 bd e6 cf 05 3a 6d 28 0f 3d
       0.05616257 -0.04857747 0.00051045266 0.034950662
0001b0 13 c5 08 be 85 2c d6 bc 62 79 9b 3a e6 af e8 3d
       -0.13356428 -0.026144275 0.0011861736 0.11361675
0001c0 cc 6f 18 3d a1 5a 99 3d b1 1f eb bc 34 82 44 bd
       0.037215993 0.07487989 -0.028701635 -0.047975734
0001d0 91 30 89 bd 03 1d a8 bd f2 c4 c6 bd b5 8e 70 bd
       -0.066987164 -0.082086585 -0.09705533 -0.058729846
0001e0 f5 53 91 bd b6 c0 1d 3d 91 83 a9 3b e6 c6 8b bd
       -0.07096092 0.03851386 0.0051731546 -0.06825046
0001f0 ad 28 b8 bd 0d b0 f5 bd 07 9f d0 3c 1f b5 5d 3d
       -0.08992133 -0.1199647 0.025466455 0.05412781
000200 67 52 56 3d e2 9c 07 3d 26 e0 75 3d 12 e7 cb 3c
       0.05232468 0.0331086 0.060028218 0.024890456
000210 d3 17 cd 3c 06 7f d5 3d ef 18 57 3d 0e 1f 4f be
       0.025035774 0.104246184 0.052514013 -0.2022669
000220 1a 6a be bd 12 3e 30 3c 30 d5 0b be 77 68 05 be
       -0.09297581 0.010756986 -0.13655543 -0.13028131
000230 d5 54 37 bd 10 e6 1d be d1 37 a7 bd a4 a2 e3 bc
       -0.044758637 -0.15419793 -0.08164943 -0.027787514
000240 05 c7 3d 3d 17 66 cc bc bf 31 17 bd 79 c9 9a bd
       0.046332378 -0.024951024 -0.036912676 -0.07557959
000250 1d ac 60 bc db 43 1f 3c b4 56 2b bd 97 50 da 3b
       -0.01371291 0.009720768 -0.041830733 0.006662439
000260 8a 1c 91 bb 57 ba 90 bd 14 6f f9 bc 46 0f 9b 3c
       -0.004428451 -0.070667915 -0.030448474 0.018928181
000270 8d 39 d4 bd d8 1d 40 bb 99 72 34 bd 30 f3 89 bd
       -0.103625394 -0.0029314663 -0.0440546 -0.067358375
000280 40 83 0d 3c b1 95 31 3b 9e da 24 bd f9 40 ea 3d
       0.0086372495 0.002709728 -0.040247552 0.11438174
000290 7a e5 09 3d af d0 ff bb 7f 73 b5 3c 8f 9c 08 3c
       0.03366611 -0.0078068594 0.0221498 0.008338108
0002a0 0d a7 51 bd bf 60 07 3d 49 51 16 bd 83 9f 2b bc
       -0.051184703 0.03305125 -0.036698613 -0.010475042
0002b0 12 f2 d6 bc 7b 9b 08 bc 93 f3 1b bc 5c 83 db bc
       -0.026238475 -0.008337851 -0.009518522 -0.026796035
0002c0 c0 94 0b bd f4 d6 c3 bd 41 ba 8f bd 55 f2 0d 3b
       -0.034077406 -0.095624834 -0.07017947 0.0021659334
0002d0 80 81 0d be cc 82 e4 bd 34 19 ea bc d7 c4 d6 bd
       -0.13818932 -0.1115776 -0.02857647 -0.10486763
0002e0 d8 d1 24 be 0d 48 89 bc f1 b8 06 be a3 2b be bd
       -0.16095674 -0.01675799 -0.13156487 -0.09285667
0002f0 e1 d8 4e 3d d2 d2 8f bd 62 ad 93 3c 3e bc 28 3d
       0.0504998 -0.07022633 0.018027011 0.041195147
000300 7f 71 55 3d 73 32 97 bd 5c d3 aa 3d ce 4d 9c 3c
       0.05211019 -0.07382669 0.08341095 0.019080069
000310 9d 8c c6 bd 7b b4 15 bc 2b 99 b5 bd 15 89 b0 bd
       -0.096947886 -0.009137268 -0.08867105 -0.08619896
000320 4f 12 2a 3d ef e8 b6 3c c9 67 af bd 2c 0d 4b bc
       0.041521367 0.022327868 -0.08564717 -0.012393277
000330 9f fa a8 bd 7b c5 33 bd 80 9a a7 3d 03 7f 68 3d
       -0.08250927 -0.043889504 0.081837654 0.056761753
000340 47 c2 e4 3c 59 4f 0a 3d 69 22 c4 bc 89 64 80 3d
       0.02792467 0.033767078 -0.02394219 0.062691756
000350 d1 30 99 3d ff d0 85 bd 36 a5 5c bb bb 84 cf 3d
       0.07480014 -0.065340035 -0.003366781 0.10132738
000360 ed 38 2f 3d 0a ea ae 3d 40 9c 91 3d 9d 60 18 3d
       0.042778898 0.08540733 0.071098804 0.037201513
000370 e3 6d c1 3c 35 75 08 3d 11 05 6d 3d 4b 96 4c bd
       0.023611968 0.033314902 0.05786616 -0.049948018
000380 af 50 91 bc da 7d ae bc 13 f2 34 bd c2 92 80 3c
       -0.017738668 -0.021300245 -0.044176172 0.01569498
000390 a3 9e 7f 3d a7 a3 86 3d 19 97 01 3c 5d fc 79 bd
       0.062407147 0.06574183 0.00790956 -0.061031688
0003a0 1c f6 42 bd d7 a3 91 bd 4e 41 86 bd 8a 2b 10 be
       -0.04759799 -0.07111328 -0.06555425 -0.14079109
0003b0 77 38 26 be d0 db cf 3c 45 41 05 be a8 fd 39 3d
       -0.16232477 0.02537337 -0.1301318 0.04540792
0003c0 6b 66 5c be 1e be 2a bd d2 6f f0 bd 8a 6f 66 bd
       -0.21523444 -0.041685216 -0.11740078 -0.056258716
0003d0 3b b2 92 bd 86 50 29 bd d2 ed 02 3e e1 f2 0f 3e
       -0.07162901 -0.04133656 0.12786034 0.14057495
0003e0 6d 24 a0 3d cd 0f 79 3d b7 5b a9 3b 42 c3 94 3d
       0.07819448 0.060806084 0.005168404 0.07263805
0003f0 80 16 9e bd fd ce 49 bd 94 12 7f bd 86 c2 fc 3c
       -0.07719135 -0.049269665 -0.062273577 0.030854475

conv2.bias f4 [64]
000000 38 ae 15 3d 10 bf 4d bd 21 50 eb bc 17 94 04 bd
       0.0365431 -0.05023104 -0.028724732 -0.032367792
000010 38 b9 99 3d 60 8b e2 bc 84 26 ff 3c d4 20 89 3d
       0.07506031 -0.02765435 0.031146295 0.066957146
000020 0e fb 51 3d d0 a7 82 3c de a1 74 3c cb 16 03 ba
       0.051264815 0.01594916 0.01493117 -0.000500065
000030 d8 4e 19 3d ef 25 f6 bc 5e 1e c4 3d e4 54 cf bb
       0.037428707 -0.030047385 0.095761046 -0.0063272584
000040 74 53 f1 3c 71 0c ec bc 22 15 b2 bc a1 a3 a0 3c
       0.029458739 -0.028814526 -0.021738593 0.019609274
000050 0f d4 02 3c 5f df dc bc c7 9d 01 3d 68 da 3a bd
       0.007985129 -0.02696198 0.03164461 -0.045618445
000060 8d 98 b3 bc 69 95 34 3d d8 92 00 bd e0 37 89 3c
       -0.021923328 0.0440878 -0.03139004 0.016750276
000070 39 c1 f6 3c 66 91 de 3d db 4b b2 3d 01 a1 25 3d
       0.030121433 0.10867576 0.087058745 0.04043675
000080 ef 23 92 bc 73 d5 25 3d d1 4e ba 3c 44 49 21 bc
       -0.0178394 0.040486764 0.02274266 -0.009844128
000090 e4 58 7d 3c cb 25 8d 3c aa d2 29 3b 55 ec c4 bc
       0.015463088 0.017229935 0.002591292 -0.024038473
0000a0 22 c2 18 3d dd 1f 95 3d 65 a4 4c bd 3f b3 71 3d
       0.037294514 0.07281468 -0.049961466 0.059008833
0000b0 dc 3a 9d 3d ef fe 23 3d 01 0f c5 3c d4 91 38 3d
       0.07677242 0.040038045 0.024055006 0.045060948
0000c0 56 4e 1e bd 17 fc 0d 3d 01 9e 0f bc a8 f9 fd bb
       -0.038648926 0.03466424 -0.008765698 -0.0077507086
0000d0 ba 1d 85 3d 1c 28 3f 3c a6 4a 19 bd 66 ac df bb
       0.064998105 0.011667278 -0.037424706 -0.0068259714
0000e0 7d a5 0f 3d 4e 00 86 bc 27 02 5b bd 8e f4 46 3c
       0.03506993 -0.016357567 -0.05346885 0.012143267
0000f0 95 b6 91 3d e4 a4 05 3d 36 b6 ca 3d 68 a1 c9 bb
       0.07114903 0.032627955 0.09898035 -0.0061532743

conv3.weight f4 [128, 64, 3, 3]
000000 4a 60 1d bb db a0 2c 3d 36 8e b8 bb 37 e0 5f bc
       -0.0024013692 0.04214559 -0.0056321872 -0.013664297
000010 29 93 19 3d 78 c6 51 3c 85 36 1f bd bb dd 45 3b
       0.03749386 0.012803666 -0.038870353 0.0030191976
000020 8b 80 6d bd b1 e5 8e 3d a4 5b 52 3d 55 5c c7 bc
       -0.057983916 0.06977404 0.051356927 -0.02433602
000030 b8 07 d4 3d b8 a2 08 3e 31 44 ae 3c 36 08 5f 3e
       0.10353035 0.13343322 0.02127275 0.21780476
000040 2a eb d3 3d cd 95 08 3d 87 be 87 bd 8e ba 0d bd
       0.10347588 0.033345986 -0.06628137 -0.03460174
000050 53 4f 1f bd a6 60 1b bc e2 8f e8 bc 86 ec 3f 3c
       -0.03889401 -0.009483492 -0.028388921 0.011714106
000060 29 8b f1 bb b1 b8 c6 3b c2 79 1b 3d 7b 5b d4 bc
       -0.0073713255 0.0060644974 0.037957914 -0.025922528
000070 78 a8 04 3c 93 48 8a 3b b8 04 02 bd 2c 33 49 3b
       0.008096807 0.0042200773 -0.03174278 0.0030700667
000080 e9 63 c3 ba 7a 2f 27 3d 2e 20 89 bc 35 5f f2 3c
       -0.0014907095 0.04081676 -0.016738977 0.029586414
000090 8f 2a 23 3c 91 a1 ad 3c a5 0e 03 bd 58 e0 c2 3c
       0.009958877 0.021195205 -0.031996388 0.023788616
0000a0 71 80 11 3d f3 83 50 bc e8 78 d7 bc 48 50 a2 3b
       0.035522882 -0.012726772 -0.02630277 0.004953418
0000b0 62 71 e0 ba aa a7 58 9a 9e 72 d6 1b b3 0f c8 10
       -0.0017123634 -4.480319e-23 3.54774e-22 7.891028e-29
0000c0 8f d9 18 26 37 06 ad a5 01 02 87 a5 13 32 30 a7
       5.303044e-16 -3.0014927e-16 -2.3420125e-16 -2.4452052e-15
0000d0 9d 96 d5 a6 a6 a6 c6 a0 27 f5 29 3d 4b 1c 6a bc
       -1.4820668e-15 -3.3652783e-19 0.04149356 -0.014288972
0000e0 5a ff ea bc da a7 48 3d 10 6f 38 3d be 5a 8f bc
       -0.028686214 0.0489882 0.045027792 -0.017499324
0000f0 b4 aa 4b 3d 8e 89 d4 bc 36 ff 28 3b f9 a6 09 bd
       0.049723342 -0.025944497 0.0025786883 -0.033606503
000100 30 69 96 bd f2 7d 18 bd 3c 9f d5 3b 89 9e 00 be
       -0.07344282 -0.037229486 0.0065192264 -0.12560476
000110 f2 ae b4 bd 32 04 93 3c b3 24 08 bd aa d9 46 bd
       -0.08822431 0.017946336 -0.033238124 -0.048547424
000120 9b 93 94 3d 1b 62 e9 3c 48 88 2b bd be 2e 31 3d
       0.07254716 0.028489163 -0.041878015 0.043257467
000130 79 81 00 3d 9a 90 7a bd 7e 84 11 3d 38 53 3f bd
       0.031373475 -0.06117306 0.035526745 -0.046710223
000140 28 9c 79 bd 3b ad ed bc 95 2b 9d bc 6c 0b bc bd
       -0.060939938 -0.029013267 -0.01918582 -0.09181866
000150 61 f5 dd bc e4 ba 11 ba c5 31 90 bc a4 ae b7 3c
       -0.027094545 -0.000555916 -0.017601857 0.022422142
000160 e9 ba a0 3c 52 f9 25 3d b8 cc f3 bb 78 e3 96 bc
       0.019620376 0.040520974 -0.007440176 -0.018419012
000170 07 ca a3 3b 0a 54 2e 3b 59 fd 86 bb db 44 8f 3a
       0.004998449 0.0026600384 -0.004119557 0.0010930555
000180 83 98 99 3d 1c 05 a9 3c 60 33 ca 3c cb 5d 7b bb
       0.074997924 0.02063232 0.0246827 -0.0038355466
000190 92 e2 cb bc 1a 2f 20 3c 23 79 a1 3c 11 a7 06 bd
       -0.02488831 0.009776855 0.019711083 -0.03287417
0001a0 eb 5a a2 3c 8e 57 96 ba 62 cb 6c bd 43 0e a2 bc
       0.019818744 -0.0011470185 -0.05781115 -0.019782191
0001b0 09 7b c8 3b 8f 7f 59 3c e2 9e 74 3b 2d 3b 2b 3d
       0.0061181826 0.013275041 0.0037326147 0.04180448
0001c0 71 ba 09 3c e9 99 6d 3d 3f 52 fe 3c 4a 60 13 bc
       0.0084062675 0.05800811 0.031045077 -0.008995125
0001d0 58 ec 09 bc 2e 0b b9 bd c1 4b 13 bd d7 84 65 bc
       -0.008418165 -0.090353355 -0.035960916 -0.014008722
0001e0 65 7f d5 bd 2d d0 d3 bd 75 68 84 bd a8 00 d2 bd
       -0.10424689 -0.10342441 -0.06465236 -0.102540314
0001f0 ed 5c e7 bd 38 c0 90 bd 37 93 8d bd 5e b2 da bd
       -0.11297021 -0.07067913 -0.06912845 -0.10678552
000200 99 8c 5e bd 61 f8 09 bd c4 2e 86 bd f5 e9 9e bd
       -0.054333303 -0.03368414 -0.065518886 -0.077594675
000210 80 f7 b8 3a ba 10 69 bd 8c 6a cb bc 2c 03 c8 bb
       0.0014111847 -0.056900717 -0.024831079 -0.0061038937
000220 11 9f 28 3c 33 b4 2e 3c 21 a5 d0 3c c9 96 c3 3d
       0.010291831 0.01066308 0.025469365 0.09550244
000230 e1 28 c8 3c 49 8a cf 3c a6 d9 35 3d 0f da 1c 3d
       0.024433555 0.025334494 0.04439702 0.038293894
000240 1b b4 7d bd 93 8b ee bc d8 39 95 3d 88 26 bb bd
       -0.06193934 -0.029119289 0.072864234 -0.09138209
000250 4c 91 6c bd 09 3c 0e 3c 92 3c 4d bd 73 c2 54 bc
       -0.057755753 0.008681306 -0.050106592 -0.012985813
000260 d1 59 3d bc 9f 75 27 bc 72 18 b0 3c 27 c8 7d bc
       -0.011557058 -0.010220914 0.021496031 -0.015489615
000270 b3 0c 13 3c 3d bb e5 3c b5 77 1e bd 60 d1 1f bd
       0.008975196 0.028043384 -0.03868838 -0.039018035
000280 bc 6f d9 bb 14 60 e7 bc 3e dd 31 3d d2 45 c7 bd
       -0.006635634 -0.028244056 0.043423884 -0.09730114
000290 d2 6f 5e bd ee 12 8c 3d e3 3b 0a 3d d9 cd ff bc
       -0.05430586 0.06839548 0.03374852 -0.031226085
0002a0 6d bc 6e bc ec ba 1e bd 13 07 ff bc ee af df bc
       -0.014571291 -0.03875248 -0.031131303 -0.02730557
0002b0 02 76 66 bd 5c 9a ae bd ca ef 78 bd 3b 8a 22 be
       -0.056264885 -0.085255355 -0.060775556 -0.15873043
0002c0 bb 6c 0e be a7 ba 3a bd 69 38 06 be c3 49 e9 bd
       -0.13908665 -0.04558816 -0.13107456 -0.11391022
0002d0 5d 13 d9 3c a5 83 95 bc 73 aa c3 3c 02 af de 3d
       0.026498491 -0.01825125 0.023884987 0.10873224
0002e0 d5 6b a7 3c ae 41 46 bd 0e 3d a6 3d 9b 4d 4e bc
       0.02043716 -0.04840248 0.08117114 -0.012591745
0002f0 ba 23 35 bd 20 7a 6d 3c aa 95 1b bd 33 2e d3 bd
       -0.044223525 0.014494449 -0.037984528 -0.10311546
000300 78 15 18 3c 67 ea 2c bd 7e ec c4 bd c4 eb 31 3d
       0.009282462 -0.04221573 -0.0961542 0.043437734
000310 12 da 45 3c 43 f0 a6 bc e4 dd 24 bd bc 1b 84 3c
       0.012075918 -0.020378238 -0.040250674 0.016126506
000320 42 20 b8 bb e7 ef a3 3d fe cc 57 3d d7 7b bc 3c
       -0.00561908 0.08004742 0.05268573 0.02300827
000330 b1 f1 3c 3d aa 3b b2 bb 1d 75 21 3c 71 cc ab 3b
       0.046128932 -0.0054392414 0.009854582 0.005242877
000340 6b 7d ca bb d0 15 9b bc 6e e5 6d bb 6a ea 9e bc
       -0.006179502 -0.0189313 -0.003630008 -0.019398887
000350 95 3d a9 bd a4 ae ba bc c7 15 3d bd be b4 3c bd
       -0.08263699 -0.022788353 -0.046163347 -0.046070807
000360 30 43 30 bd 65 0d d2 3c 36 a4 9a 3c 34 e7 3b 3c
       -0.043032825 0.025641153 0.01887713 0.011468697
000370 03 84 19 3d 42 e3 70 bb e2 fa f5 39 dc 5b 4f 3b
       0.03747941 -0.003675655 0.00046916964 0.0031640446
000380 28 3c f2 3c b7 ff 8a bb 93 21 2b 3c cf 59 dc 3c
       0.0295697 -0.0042419094 0.010445016 0.026898293
000390 5d 75 04 3d 90 94 91 3d 62 58 1a 3d 27 a8 4a 3d
       0.03233849 0.07108414 0.037681945 0.04947677
0003a0 d0 51 84 3c 4e 66 4e 3c 0a b6 c3 b2 06 cb 24 31
       0.016152292 0.0125976335 -2.278377e-08 2.3980546e-09
0003b0 f0 47 14 31 50 6e b3 b2 86 6a 13 2d 7d 35 e7 b2
       2.1577726e-09 -2.0888507e-08 8.3796355e-12 -2.6916263e-08
0003c0 cd 5d e7 b3 b3 fa cb ae 4b 14 84 b3 7a a3 a2 3b
       -1.0773838e-07 -9.2759044e-11 -6.15042e-08 0.0049633356
0003d0 8b 97 46 bc c6 c4 bd bd 12 f4 12 3d 2f d2 75 bc
       -0.012121092 -0.09266047 0.035877295 -0.015003725
0003e0 f9 17 04 be dd 51 07 3d 55 58 cd bc 91 39 c9 bd
       -0.1289977 0.033037055 -0.025066534 -0.09825433
0003f0 9b 94 ed bc 24 e8 00 3d 80 85 fd 3c f9 59 40 3c
       -0.029001525 0.031471387 0.030947447 0.011740201

conv3.bias f4 [128]
000000 b5 e0 ec ba 77 48 32 bc 0e 97 b3 3c 09 84 a0 bc
       -0.0018072339 -0.010881535 0.021922614 -0.01959421
000010 d0 da ab bd 6c 60 3f 3e 68 e4 51 3b 70 5d e5 3d
       -0.083913445 0.18689126 0.003202701 0.111994624
000020 f9 b0 21 3d 1e 3e d1 bc 78 29 b6 3c 0c 3c cc 3a
       0.039475415 -0.025542315 0.02223657 0.001558186
000030 ab 53 7f 3d 53 ee 9b 3d a3 93 47 3d 4e 93 b3 bc
       0.06233565 0.07613816 0.04872478 -0.021920826
000040 08 4e a9 8c 7c 71 98 b9 6e 6f a9 b9 e3 d0 7b bc
       -2.6085536e-31 -0.00029076252 -0.00032317213 -0.015369627
000050 86 38 76 8e fb 58 b1 bb c0 d6 05 3c 61 03 7f 3d
       -3.0349056e-30 -0.0054122186 0.008168876 0.06225908
000060 89 15 47 3c 24 2d 0b 3d d1 1e e9 3d 4d b7 35 3d
       0.0121511305 0.033978596 0.11382831 0.044364262
000070 74 5e b3 3d cc 69 c5 bc 8e 57 43 bc 11 50 71 3b
       0.0875825 -0.0240983 -0.01192273 0.0036821405
000080 e4 2c 1c 3e 4e 23 2b ae 8a 5c 1c 3d 98 65 d3 ba
       0.152515 -3.8912255e-11 0.03817419 -0.00161283
000090 0f 66 fa 39 70 98 b0 bb dd 4a de 3c a9 d1 10 bc
       0.00047759755 -0.0053892657 0.027135307 -0.008839049
0000a0 f5 04 eb 3d 0a 56 b9 3c a2 d1 e9 bb 9e ed 86 bb
       0.11475555 0.022624034 -0.007135586 -0.0041176816
0000b0 22 17 13 bc 5a 6a 90 3c 8e 89 ba 3c b8 18 16 3d
       -0.008977683 0.017628837 0.02277067 0.036644667
0000c0 9d e0 40 3d 1f 17 e8 bb 90 3f 9e 3d ed e2 8e 3c
       0.047089208 -0.0070828344 0.07726967 0.017442191
0000d0 22 c6 c6 3c 16 25 0d 3c c3 76 93 bc dd 72 db 3c
       0.024264399 0.008614799 -0.018000966 0.02678817
0000e0 bf 18 a3 3d 75 b5 21 3d b3 09 43 bc 3e 2a 13 ac
       0.07963704 0.03947969 -0.011904168 -2.0913406e-12
0000f0 d0 26 83 3d f1 06 de 3c a9 0c 8e 3d 21 73 7e 3d
       0.06403887 0.02710292 0.069360085 0.062121514
000100 cf 81 3a bc fc f6 97 3a 15 63 c6 ba 9e 00 29 bc
       -0.011383488 0.0011593993 -0.001513573 -0.010315089
000110 c7 4a 0d 3d 74 35 23 3d f7 77 ce 95 9c 29 22 bc
       0.03449514 0.0398459 -8.339201e-26 -0.009897616
000120 40 e5 aa 3d 53 b9 94 3c 13 2f 3a b0 7b d4 ba 3c
       0.08344507 0.018154776 -6.77333e-10 0.022806397
000130 08 5d f0 b9 c4 9b 2e 3c 3e 3c c8 3c 77 b8 97 3c
       -0.0004584568 0.010657255 0.024442788 0.018520577
000140 28 8e 5f 3c c2 b3 a7 b8 96 f9 03 bd c2 f3 9f bc
       0.013644733 -7.996663e-05 -0.032220446 -0.019525412
000150 82 ed 5c 3d 86 7b 66 3d f0 1a 82 3c b2 b2 36 3d
       0.053937443 0.056270145 0.015881985 0.04460401
000160 83 07 90 3c 4e 95 87 3d 7e 40 89 bc 9a d8 22 bb
       0.017581707 0.066202745 -0.016754385 -0.0024848343
000170 ae 84 5a bd 09 51 b0 3d 78 43 a7 bc c4 14 8c 3c
       -0.05334919 0.08609206 -0.020417914 0.017099746
000180 d1 ff a4 ac d8 9c 07 3c 1c a0 bd 3d 2d c3 dc 3d
       -4.6895617e-12 0.008277141 0.09259054 0.10779414
000190 e2 96 61 bd 4b 93 0d bd 52 5c 3d 3d 12 2e 76 bd
       -0.055075534 -0.034564298 0.04623062 -0.06010253
0001a0 0f 0a 0b 3c f1 5a da 3d f8 0e de ba 90 43 7a 9c
       0.008486285 0.10661877 -0.0016941717 -8.2805384e-22
0001b0 bd 62 d0 3d 80 db 56 bb 49 03 36 bb cb 17 f2 3c
       0.10175083 -0.003278464 -0.0027772954 0.029552361
0001c0 6c 9a 46 bb 1a 03 0d 3e b6 67 4c 3c 59 4d 72 3d
       -0.0030304445 0.13770714 0.0124758985 0.059155796
0001d0 c9 eb 6c 3d a9 e8 15 3b a5 02 90 3d 55 31 16 3e
       0.05784205 0.0022874272 0.070317544 0.14667256
0001e0 99 d9 e9 bd 17 5a 2f 3c 8f fa dd 3a ba d5 19 bb
       -0.114184566 0.010702631 0.0016935634 -0.0023473338
0001f0 69 0e 10 3c 29 b0 13 bd 54 d8 9c 3d 64 3f 9a bc
       0.008792498 -0.03605667 0.07658449 -0.018829055

act_conv1.weight f4 [4, 128, 1, 1]
000000 61 6e 94 3c f6 fc a7 bb 63 e2 ac be 7d b5 ca bb
       0.018119039 -0.005126591 -0.3376647 -0.006186186
000010 ba f8 b2 be 0d bf 87 3d bf 2e 20 bd 77 39 3a bd
       -0.34955388 0.06628237 -0.03910708 -0.04546496
000020 67 5c fa 3d a7 85 62 3e 4e 01 75 bc 6c 91 32 3c
       0.122246556 0.22121297 -0.014953924 0.010898929
000030 7c 62 26 3e 65 3a cc 3d 33 f1 a2 3e 76 d9 8b 3b
       0.16248506 0.099720754 0.31824645 0.0042678667
000040 c6 03 15 00 ca f3 12 80 da 1d 40 00 45 5d b4 00
       1.929899e-39 -1.740494e-39 5.88818e-39 1.6563848e-38
000050 55 29 1f 00 ce 08 0f bd 59 a0 06 bd e5 8b d6 3d
       2.861728e-39 -0.034920506 -0.032867763 0.104759015
000060 61 4a a0 3b 06 6b 71 3d 52 2b 1c 3e 30 7d 56 bd
       0.004891679 0.058939956 0.152509 -0.05236548
000070 33 62 7f 3d fe 30 ba a5 3f f2 c2 3d b1 63 05 3d
       0.06234951 -3.2299055e-16 0.09518861 0.032565776
000080 5e 70 01 3f 67 85 5a 00 31 e2 03 bd 4e 55 86 80
       0.50562084 8.31305e-39 -0.032198135 -1.2336558e-38
000090 ab e7 3e bc d8 27 6e 80 e4 46 be bd d1 05 5e bd
       -0.011651914 -1.0116198e-38 -0.09290865 -0.054204766
0000a0 46 96 3c 3e 29 4b 34 3d d8 36 85 bc ae 12 1e 3e
       0.184167 0.04401699 -0.016261503 0.15436813
0000b0 56 78 9e bc 66 10 46 3e 14 38 d5 3d fe 65 c2 3b
       -0.01934449 0.19342193 0.10411087 0.0059325686
0000c0 12 f0 0c be 6e 06 f7 bd 50 96 30 3e ca 74 89 bd
       -0.13763455 -0.12061773 0.1724484 -0.06711729
0000d0 cd 74 9e bd 02 34 e7 3b 37 a3 58 80 e6 dd 78 bd
       -0.07737122 0.0070557604 -8.140074e-39 -0.060758494
0000e0 e2 78 1d 3e fc ec a4 3d db f6 f6 ac 2b 12 2d 00
       0.15378144 0.08053014 -7.019147e-12 4.139115e-39
0000f0 b6 0a d5 3d 25 11 15 bd 45 a3 8b 3e 39 96 0f 3b
       0.104024336 -0.036393303 0.27273002 0.0021909608
000100 83 25 99 00 30 98 a2 3c 99 93 45 00 1f 7d f2 bc
       1.4064288e-38 0.01984796 6.389597e-39 -0.029600678
000110 27 13 2a bc b8 cb f8 bd 38 dd 5f 80 20 4d 7c bc
       -0.010380543 -0.12148231 -8.80373e-39 -0.015399247
000120 98 3b 0d 3e 64 1d 25 bd 1a dc b1 00 ed ec e1 bc
       0.13792264 -0.040311232 1.633384e-38 -0.027578795
000130 78 5c 99 80 eb b9 df bb 64 95 38 be 1c 86 0f 3d
       -1.4084002e-38 -0.006827583 -0.18025738 0.035040006
000140 bc 2e 10 bd 1b 4d 25 80 d4 a6 c0 3c 62 84 64 80
       -0.03520082 -3.425574e-39 0.02351705 -9.23104e-39
000150 bc 16 8a 3e eb 76 fe 3a 79 dc 97 3d 63 0e 1c 3e
       0.2697047 0.0019414102 0.07415099 0.15239863
000160 78 00 64 3c a7 e3 5c 3e a9 0f d2 bd 60 12 34 00
       0.013916127 0.21571217 -0.10256893 4.782038e-39
000170 f4 37 63 be 32 12 3e 3e 66 0a a8 00 36 d9 3d 3d
       -0.22189313 0.18561628 1.5432094e-38 0.046349727
000180 93 e9 72 00 23 26 97 bc 43 1a c3 3d 90 e9 a6 3d
       1.0553037e-38 -0.018450802 0.095264934 0.08150017
000190 18 be 4e 00 97 40 d1 bd 7e 4a 74 bd 94 84 c3 3d
       7.231361e-39 -0.10217398 -0.059641354 0.09546772
0001a0 5a 06 00 3d 58 16 3b 3e de 82 28 00 d3 44 8f 80
       0.031256057 0.18270242 3.720366e-39 -1.3157165e-38
0001b0 bd 80 0f 3e 18 73 5d 80 f8 6b 00 be 10 91 2d 3f
       0.14013954 -8.581989e-39 -0.12541187 0.6779947
0001c0 94 ce 02 00 ef 12 89 3d 14 36 93 bd 33 bd 60 3e
       2.57777e-40 0.066930644 -0.07188049 0.21947174
0001d0 d9 d6 e1 ba 8e 8a 61 3e f7 ab 57 3e b7 58 b5 3d
       -0.0017230167 0.2202551 0.21061693 0.08854812
0001e0 5c 95 a9 be bf 5d 4f b4 dc 98 cb bd 49 02 bc 3c
       -0.33121765 -1.9312482e-07 -0.09941265 0.022950308
0001f0 90 61 df bc ae 77 4a 00 ab 58 18 3e e0 ba 1d bd
       -0.027268201 6.83876e-39 0.14877574 -0.038508296
000200 89 a8 20 3d 61 30 5a bb 47 40 2f 3c ac fd 9f bc
       0.039223228 -0.0033292996 0.010696477 -0.01953014
000210 8b a1 a2 3c 93 b4 3a bc ce 64 0e 3d 27 13 eb bc
       0.01985242 -0.011395591 0.034764104 -0.028695656
000220 34 dd a1 3b 56 2b 0a bc 6f 3d f5 3c fd 54 10 1f
       0.0049396995 -0.008433184 0.02993652 3.0563487e-20
000230 3d 7a a8 b9 47 68 98 ba 9b 58 1d bd 52 03 16 bd
       -0.00032134532 -0.0011627757 -0.03841458 -0.03662426
000240 f9 20 36 80 35 80 b8 00 ab 69 55 80 9b 6c 38 bc
       -4.970945e-39 1.6943723e-38 -7.843924e-39 -0.011256362
000250 0d df 48 80 ba cf 48 3b 4a 20 c1 3c 74 4d 3b bc
       -6.692171e-39 0.0030641393 0.023574967 -0.0114320405
000260 7f 33 47 bc c9 1f 7e bc e1 b0 c0 bb 03 df a5 bc
       -0.012158274 -0.015510508 -0.0058804606 -0.020247942
000270 78 56 95 bc 7f 49 84 9f b7 86 b8 3a 84 6a c8 bb
       -0.018229708 -5.6025764e-20 0.0014078234 -0.0061162133
000280 eb 82 25 3a 32 62 f4 01 91 b7 5e 3b a0 06 9e 00
       0.0006313759 8.977235e-38 0.0033983926 1.4512385e-38
000290 aa fd 8a bd 71 ba 76 80 c5 94 d0 3b 1e 95 ef ba
       -0.06786664 -1.0903471e-38 0.006365391 -0.0018278693
0002a0 f3 b9 61 3b fe 9d ea bb da a3 66 bd a0 ca d7 bc
       0.003444311 -0.0071599474 -0.056308605 -0.026341736
0002b0 8a 37 03 3c 76 c7 46 3b a3 a2 d3 bc 1b ff 26 3c
       0.008008847 0.003033129 -0.025834387 0.010192658
0002c0 94 04 57 bd 97 67 b9 bd 3a c6 ce 3b e3 45 69 3c
       -0.0524946 -0.09052961 0.0063102515 0.014237854
0002d0 48 77 29 bb a5 37 e1 bc 5a 05 33 00 ee 0f 78 bd
       -0.002585845 -0.027492354 4.68553e-39 -0.060562067
0002e0 d0 f4 de bb 83 21 a8 3a 1b c0 5c 3b 24 74 aa 00
       -0.0068040863 0.001282737 0.003368384 1.5653698e-38
0002f0 13 fc 3f 3c 15 fb a3 bc f2 b9 db 3c 93 c8 fa 3b
       0.011717814 -0.020017186 0.026822064 0.007653305
000300 00 64 9c 00 80 89 9f b9 0d 52 4f 00 60 13 a9 9f
       1.436221e-38 -0.0003042929 7.284438e-39 -7.160634e-20
000310 ca 4c 00 bd 77 0c bd bd d8 ec 9a 80 9a 72 f2 b8
       -0.03132323 -0.09230893 -1.422763e-38 -0.000115608054
000320 be 79 a8 3b 0f 85 06 3d b4 db 84 80 7f 4d 02 bc
       0.005141466 0.03284174 -1.22011e-38 -0.007953047
000330 42 37 80 00 28 16 be bc 2a 48 83 bc a2 1f 40 bd
       1.1774766e-38 -0.023203924 -0.016025621 -0.046905167
000340 3e 86 b1 bd 44 9a 19 00 e3 92 cb 3c 53 59 03 bc
       -0.08668183 2.351227e-39 0.024850314 -0.008016902
000350 a7 c4 6a b9 a6 ef 37 3b 75 0b 89 bb 6c 8b 2c bc
       -0.00022389238 0.0028066426 -0.004182274 -0.010531288
000360 97 6a 11 bc 1f da 16 3b 90 7b 32 bc ad dc 80 00
       -0.008875511 0.0023018194 -0.010893717 1.1834107e-38
000370 d5 cf bc 3a c5 40 50 3b 2c b7 a6 80 e2 20 10 3d
       0.00144052 0.0031776887 -1.5310402e-38 0.03518761
000380 ff 47 5f 80 95 17 8f bd 3f 8b f0 bb 0a 79 47 3b
       -8.7502e-39 -0.0698692 -0.007340818 0.0030437135
000390 6f b2 32 bd 9c af 25 bd b5 28 89 ba eb cf 77 3b
       -0.0436272 -0.040450677 -0.0010464402 0.0037813138
0003a0 2f 93 b5 bd 41 e3 c6 bc dd 32 bc 00 81 0e 11 80
       -0.08865964 -0.024278285 1.728332e-38 -1.566406e-39
0003b0 73 4c 60 b9 50 bf c1 80 de 6f 24 bc 1c a6 76 bc
       -0.00021390784 -1.7792881e-38 -0.010036437 -0.015054252
0003c0 63 7c 31 80 d5 f1 af bc 0a a5 cc bc b8 f5 52 3b
       -4.544561e-39 -0.02147762 -0.02498104 0.0032189917
0003d0 f6 05 7e 3c 00 de de bb 6a c3 6b bd 33 49 8c bc
       0.015504351 -0.006801367 -0.05755941 -0.017124748
0003e0 b6 c2 e2 bc 04 c5 42 b9 46 66 84 bd 5e 62 1b 3c
       -0.027680736 -0.00018574676 -0.064648196 0.009483902
0003f0 fc 95 9f bd c3 ec 89 80 2f 82 53 bc f7 7b 22 80
       -0.07792279 -1.2666397e-38 -0.012909456 -3.166877e-39

act_conv1.bias f4 [4]
000000 54 31 52 3d 7c 41 af bd de 77 20 bd b6 15 77 3d
       0.051316574 -0.08557412 -0.039176814 0.06032344

act_fc1.weight f4 [100, 400]
000000 e6 15 a6 bc 5b cc 20 3c da 3a b5 b8 01 1b 8a bc
       -0.020274114 0.009814347 -8.6417145e-05 -0.01685858
000010 19 31 6e bd 36 f7 57 bd ab 23 a6 bc 50 a7 19 3b
       -0.058152292 -0.052725993 -0.02028068 0.0023445673
000020 17 f5 c1 bc 4c 67 41 bd 2c 12 fe bc f5 8c 53 3c
       -0.023676438 -0.047217652 -0.031014524 0.012912025
000030 38 2e 9d bc b4 53 0b bc 92 0a 34 bd 73 2c 15 bd
       -0.019187078 -0.008503843 -0.043955393 -0.036419343
000040 2f b7 49 bc a3 b8 2b bb a7 a5 15 bc 1f f3 9d bc
       -0.012311741 -0.0026202581 -0.009133733 -0.019280968
000050 c6 f1 19 3c 64 4e 18 bc 7e 7e 04 3c 53 e0 cd bb
       0.009396022 -0.0092960335 0.008086799 -0.006282845
000060 48 ba 0d bc ce 15 8d 3b 19 c5 2f bc ce 82 d8 3b
       -0.00865037 0.004305578 -0.010728144 0.00660739
000070 5e a8 6c bc 31 26 8f bc 1f 91 80 3b 1f c7 7f 3c
       -0.014444439 -0.017474266 0.00392355 0.015611439
000080 fd 58 f9 3a b3 9f 68 bc 59 30 a3 ba a6 6d 6f 3c
       0.0019023713 -0.0141982315 -0.0012450322 0.014613545
000090 75 f3 47 3c da 97 8a bb 12 d5 a8 3b 0b 10 0b bd
       0.012204041 -0.004229528 0.005152353 -0.033950847
0000a0 31 21 55 bd d6 3f 3a bd 88 ab ca 3a 7e bd b5 38
       -0.052033607 -0.045471035 0.0015462497 8.666048e-05
0000b0 9b 7d f8 3b 98 7b 3d 3c 2f 4f 0a 3c ca 49 83 bc
       0.0075833327 0.011565112 0.00844173 -0.016026396
0000c0 8e c9 33 bd cf a7 8e bd e4 fd 94 bd 3d 9c 32 bd
       -0.04389339 -0.06965601 -0.07274988 -0.04360603
0000d0 a1 22 4d bb 64 3c 74 bc 71 b6 6e 3b b7 40 b2 bb
       -0.0031301158 -0.014906976 0.0036424662 -0.0054398435
0000e0 46 8a 60 3b 66 2d 4d 3b 34 f2 3c bd c0 80 72 bd
       0.0034262105 0.0031307577 -0.04612942 -0.059204817
0000f0 6d 52 fc bc db 61 78 3b 21 f0 ff bb a9 2a f5 3b
       -0.030801022 0.0037900123 -0.007810608 0.007481892
000100 6f 34 0b 3c 2b 6a 5b bc 9c 23 54 3c 2f 34 97 bc
       0.008496388 -0.013392012 0.012947943 -0.0184575
000110 c5 a6 1f bc 9e aa ce bc 27 91 c5 bb 3e 86 8c 3c
       -0.009744351 -0.025227841 -0.0060292664 0.017153855
000120 b1 f1 d7 3c 34 75 69 3a f9 ea 9a bc 72 4a 71 3c
       0.026360365 0.0008905709 -0.018910872 0.014727222
000130 7e cc 9b bc 7c 92 68 3c 68 30 1f 3c 4a 00 05 3b
       -0.019018408 0.014195081 0.009716131 0.0020294362
000140 70 4f 1b bd 75 cc ed 3c b9 8a c4 bc e6 8e 9a bb
       -0.037917554 0.029028157 -0.02399193 -0.004716742
000150 cc 6b 64 bd 39 81 32 bd b0 2e 40 bc eb 4a b9 bb
       -0.055766866 -0.043580268 -0.011729881 -0.005654683
000160 12 f1 0b bc 67 f0 9d bc 9c ef 03 3d 2d 79 14 3d
       -0.008541362 -0.019279672 0.03221093 0.036248375
000170 dd 2d 9f bd b3 5d 09 3c 81 bb a4 bd a3 04 8a bd
       -0.077724196 0.008384156 -0.08043576 -0.06739166
000180 e0 40 58 bc 0e 20 68 bc 61 59 94 bc 34 da 24 bd
       -0.013199061 -0.014167799 -0.018109025 -0.040247157
000190 6f e8 a6 a6 0e 90 31 a6 a8 10 dd a5 67 5c 52 26
       -1.1581565e-15 -6.160444e-16 -3.8348676e-16 7.2983615e-16
0001a0 23 e4 63 26 9a ea ff 26 61 54 08 a7 4c c1 9f a6
       7.906563e-16 1.7757768e-15 -1.8919533e-15 -1.1085235e-15
0001b0 af 7d fa a5 aa 96 a7 24 22 a9 bb 25 20 43 f2 25
       -4.3453253e-16 7.267994e-17 3.2553938e-16 4.2025794e-16
0001c0 5c ab c2 a4 8a fa 7a 25 5b 6f c7 25 20 3d f7 a9
       -8.442438e-17 2.176893e-16 3.4596455e-16 -1.0979607e-13
0001d0 0d 41 b3 26 e0 04 73 a5 5a ba 24 a8 40 33 38 25
       1.2438252e-15 -2.1078542e-16 -9.144237e-15 1.597682e-16
0001e0 5c c0 10 a4 a1 23 65 26 84 11 55 2c b8 61 4a ac
       -3.1387957e-17 7.949862e-16 3.0278844e-12 -2.8760171e-12
0001f0 5e b8 50 2d 8c 66 ec 2f 84 38 c6 30 51 bf 85 2e
       1.1864369e-11 4.3001014e-10 1.4422459e-09 6.0821244e-11
000200 55 3f 9f aa 12 94 42 26 be 82 44 26 d3 cf d0 a6
       -2.828802e-13 6.7507944e-16 6.817835e-16 -1.448923e-15
000210 88 74 9b 2c a3 ed 59 2c 57 bc 96 2e 97 4f 9e 2d
       4.4183025e-12 3.096947e-12 6.854666e-11 1.7997865e-11
000220 e7 e0 01 2f 19 0e 73 2e e4 e6 d0 aa b1 e0 aa 26
       1.1812383e-10 5.5264324e-11 -3.7108435e-13 1.1857022e-15
000230 3c 43 23 a6 a1 65 5a 26 11 b5 84 2e 7b d4 20 2f
       -5.6643105e-16 7.5771676e-16 6.034829e-11 1.4627403e-10
000240 b9 95 d5 2f b5 3d 23 2f 17 d3 0c 2e d8 5c 85 2d
       3.885086e-10 1.4846686e-10 3.20198e-11 1.516158e-11
000250 f8 d5 96 2d f6 b4 48 23 93 e5 8c 26 f2 0d 71 a6
       1.7148047e-11 1.0880342e-17 9.776678e-16 -8.363257e-16
000260 e7 83 e6 2e d4 91 42 2d f9 5e 97 2e c7 f8 a9 2d
       1.04826196e-10 1.1060004e-11 6.8835555e-11 1.9323555e-11
000270 d0 8d 93 2d c2 b0 b4 32 0d 2b bc a7 a4 4b e3 23
       1.6774943e-11 2.1035138e-08 -5.222716e-15 2.4643424e-17
000280 ee 57 37 a5 ac 50 86 a5 79 42 8f 2a 9a a6 35 ab
       -1.5902512e-16 -2.329996e-16 2.5448027e-13 -6.4535324e-13
000290 1b ee 4c 2c d5 62 8a 2f 0f 30 78 2d 07 c2 0f 31
       2.9122319e-12 2.5172278e-10 1.4107839e-11 2.091953e-09
0002a0 49 f5 35 aa 36 da 45 a7 80 7d 0e a6 f8 25 c1 a6
       -1.616113e-13 -2.7457534e-15 -4.943623e-16 -1.3402357e-15
0002b0 2c 13 90 30 3c c9 b0 2e b8 56 db 2e f6 2a e6 2b
       1.0482828e-09 8.0393e-11 9.974371e-11 1.6354407e-12
0002c0 0f ef 22 2b f7 b0 3d 30 9a ba c2 aa 6d 9a ea a5
       5.788572e-13 6.900928e-10 -3.4590804e-13 -4.0697172e-16
0002d0 d0 4a 82 a6 3a 32 45 26 52 1f 39 25 36 ec 35 a7
       -9.04084e-16 6.8416175e-16 1.6056804e-16 -2.5246846e-15
0002e0 c6 66 f4 a6 97 4c bf a4 23 fb bf 26 35 33 48 a8
       -1.6958758e-15 -8.2962794e-17 1.3321358e-15 -1.1113334e-14
0002f0 d9 b3 96 a7 a8 cd 93 25 40 c1 86 a6 0e 11 4c a6
       -4.1828355e-15 2.5639793e-16 -9.350498e-16 -7.079983e-16
000300 67 28 dd a6 19 4d 8b a7 4e d7 f7 a5 2d 57 0c 25
       -1.5345907e-15 -3.866384e-15 -4.2993566e-16 1.21726e-16
000310 60 76 dc 26 fe 06 d8 a5 41 b7 fa a6 83 76 01 26
       1.5297652e-15 -3.7474765e-16 -1.7396906e-15 4.491648e-16
000320 6d 66 81 00 a8 13 60 a6 0e 74 a4 29 c5 4f e7 a9
       1.1883522e-38 -7.774225e-16 7.303195e-14 -1.02722986e-13
000330 ab 80 82 ab 4d a1 79 a9 69 9b cd 29 3e fd 0c aa
       -9.272768e-13 -5.5429013e-14 9.130788e-14 -1.2522359e-13
000340 8c 16 e0 27 ac 9e 50 98 51 55 05 24 31 ef 27 b1
       6.2196935e-15 -2.6963479e-24 2.8912044e-17 -2.4437663e-09
000350 ac bf c3 32 15 e4 61 30 05 60 fe 30 d2 cb db 31
       2.278815e-08 8.2178647e-10 1.8508223e-09 6.3969106e-09
000360 0f 1e 27 b1 ee 76 51 b1 cb 46 0b 30 40 ce 09 28
       -2.4318785e-09 -3.0481107e-09 5.066851e-10 7.649751e-15
000370 29 de 76 29 66 e0 b1 31 52 00 a0 b3 c7 88 8b b3
       5.4815666e-14 5.176889e-09 -7.450639e-08 -6.4975715e-08
000380 c1 61 e2 b2 fc 7a 59 33 6f 31 02 b3 6f d3 1c b2
       -2.6354316e-08 5.0636103e-08 -3.0312943e-08 -9.1284695e-09
000390 5f 3c a2 2f 29 73 7a 2a c7 6d a9 29 63 71 5f b3
       2.9510525e-10 2.2244415e-13 7.524151e-14 -5.2024358e-08
0003a0 7d 3c 3f b4 05 f6 9d b2 9e 5b 3c 34 9d bc 93 32
       -1.7810267e-07 -1.8389082e-08 1.7542195e-07 1.7198824e-08
0003b0 9f cf 10 34 d5 1b 58 b3 6c 82 1c 32 41 25 a8 2a
       1.3486577e-07 -5.0316732e-08 9.11005e-09 2.9868645e-13
0003c0 7c 4f 8d aa 66 36 c8 b1 40 64 ae 33 19 7a 9a b2
       -2.5101785e-13 -5.8269505e-09 8.120742e-08 -1.7983483e-08
0003d0 6d 30 9a 31 f9 af 62 33 ae 7a 20 34 53 b4 be 32
       4.4874953e-09 5.277977e-08 1.4945792e-07 2.2200913e-08
0003e0 4d 36 e1 b2 b5 8b a2 2c dc 06 34 28 4c a3 ec 30
       -2.621814e-08 4.6198275e-12 9.993495e-15 1.7217672e-09
0003f0 e9 87 69 33 ed 02 12 34 5b 2d 77 33 b2 21 c1 b1
       5.437315e-08 1.3598374e-07 5.755042e-08 -5.62087e-09

act_fc1.bias f4 [100]
000000 8a 60 27 be 45 f5 f6 bd 64 52 2c 3e 6b ce 8c 3b
       -0.1634542 -0.120585 0.16828305 0.004297068
000010 64 4e 67 3e ea c0 7d 3e c4 6a bf bc 6d 37 28 3e
       0.22588497 0.24780622 -0.02336634 0.16427393
000020 63 87 1f be 51 00 13 be 9e 39 05 be 00 ea 25 be
       -0.1557899 -0.1435559 -0.1301026 -0.16202545
000030 49 49 fd 3c 73 7f ef bd d3 61 ca bd 63 0d fa bd
       0.030918734 -0.11694231 -0.0988194 -0.122095846
000040 8a 2b 9d bd 75 4f 38 3d c8 28 1c be 62 53 17 be
       -0.0767432 0.04499765 -0.15249932 -0.14777902
000050 7d e7 e7 3d b1 2c 36 3d 6b 62 4d be 98 56 01 3a
       0.1132345 0.044476215 -0.20057075 0.0004933863
000060 d5 f4 05 be 61 21 14 be b2 28 3e 3d 0f 84 3b be
       -0.13081677 -0.14465858 0.04642553 -0.18312095
000070 56 4e 6a 3c 76 72 9e 3d 19 07 35 3c c0 68 e9 bd
       0.014300903 0.077366754 0.0110490555 -0.113969326
000080 63 60 81 3c e4 8c a9 bd c5 21 51 bd ee 5a 8c bd
       0.015793031 -0.08278826 -0.051057596 -0.06853281
000090 d0 dc 38 bd 07 54 80 3d 6c 42 b6 bd 2b d8 f7 3b
       -0.04513246 0.06266027 -0.08899388 0.007563611
0000a0 dc b5 53 3e b5 70 bc bd 7b c2 1c be 86 31 7b bd
       0.20674843 -0.09201185 -0.15308563 -0.061326526
0000b0 3c e3 54 3d 15 cf b2 3d 0e fa c3 bd 93 50 be bd
       0.05197452 0.08730904 -0.095691785 -0.09292712
0000c0 e1 23 13 be 8f a7 59 3e 4b ab 62 3e 82 df bd bd
       -0.14369155 0.21255325 0.22135656 -0.09271146
0000d0 38 e1 f9 bd 10 dc 1c bd fc a2 1c 3d 59 e7 af 3d
       -0.1220116 -0.038295805 0.03824137 0.08589048
0000e0 d6 d7 69 bd 44 28 21 be 2f 89 d8 bd a9 09 4d 3e
       -0.057090603 -0.15738016 -0.10573041 0.20023216
0000f0 6b 32 0f 3d bf 41 93 bd c2 c7 c8 3d b7 2f a0 bd
       0.03496019 -0.071902744 0.09803726 -0.07821601
000100 d4 a7 b8 bd 40 79 a8 bd cb ec 7b bd d6 bd 7c 3d
       -0.09016386 -0.082262516 -0.06150512 0.06170448
000110 bd 88 f1 bd 20 50 eb 3c 9d ad 2d 3e d9 a4 db 3c
       -0.11793659 0.02872473 0.1696076 0.026812004
000120 53 80 4f be e5 d1 0c 3c 67 59 e1 bd 68 ed de bd
       -0.20263796 0.008594965 -0.1100338 -0.108851254
000130 22 fa 5c 3d db d8 39 be 75 2f 4a 3d 11 bd f7 3d
       0.053949483 -0.1814913 0.049361665 0.120966084
000140 f0 8b 2a be 24 01 ed bd 26 94 df 3c 54 a1 07 be
       -0.16654944 -0.11572483 0.027292322 -0.13245136
000150 02 7e b6 bd e8 44 05 bd 07 e2 99 bd e1 cd 4d 3d
       -0.08910753 -0.032536417 -0.075138144 0.05024517
000160 2f f7 00 be 11 6a 0b be be bf 2e be 50 7d 3b be
       -0.12594293 -0.1361468 -0.17065331 -0.18309522
000170 38 85 f9 3d 91 74 9f 3a 32 78 59 3e d1 71 42 3e
       0.121836126 0.0012165477 0.21237257 0.1898873
000180 2e 2b 62 3c 3f 04 0a 3e 9a 91 f3 bd 1d c5 29 be
       0.01380424 0.13478182 -0.11893006 -0.16579099
